agModels-predictAge/models/NeuralNetTorch/net.params (torch, 234290 bytes, 16 tensors)

weight f4 [8, 5]
00000000: 085e 8fbf 7c27 94bf 04e0 84be 85b6 ddbe
00000010: 69dd 583f 171b 333f 6f77 a4be 10a1 07c0
00000020: 1f44 a43e ed4b a1bf 9698 b73e 38b5 9e3e
00000030: 5279 003e 7e7d 9d3f 5ce8 8e3f bf03 72be
00000040: 0a59 afbf cfe0 dabf 6370 163f 9777 493f
00000050: 550d 153f b634 c4bf cb13 a3be a2b1 ea3f
00000060: 8764 5fbe 6016 3ebf 98f0 173f bba8 923e
00000070: 48e9 45be 270e 2cbf 1540 6d3f 2a06 fe3e
00000080: 47ba 993f 8f09 973d 8a25 9bbf fc0b 24b8
00000090: d5e7 f3be 0935 88be a3e6 c4bf befa d43f
-1.1200571 -1.157455 -0.2595216 -0.43303314 0.84712845 0.6996321 -0.3212237 -2.1192055
0.32083222 -1.2601296 0.358586 0.30997634 0.1254628 1.2303922 1.116466 -0.23634242
-1.3699048 -1.7099856 0.5876524 0.78698105 0.5822347 -1.5328586 -0.31851038 1.8335459
-0.21815692 -0.7425289 0.5935149 0.28644356 -0.19327271 -0.67209095 0.92675906 0.49614078
1.2009972 0.0737487 -1.2120831 -3.911181e-05 -0.4763781 -0.26602963 -1.5382885 1.663902

weight f4 [16, 7]
00000000: 48b7 4d3e 907e ecbe e89c 11bf acf9 0dbf
00000010: e75e 173f 77c3 c43f 5f43 043f ef9a 12bf
00000020: 76cf a9bf a4fc 4e3e 70e5 64bd d9f0 00bf
00000030: f623 bebf 2fb1 42be 6e39 e83e 523b a73f
00000040: ef01 c23f 0b2d 0640 14d0 da3f 076f 1840
00000050: 987c 90bf bb61 a4be e2db 8cbf ff63 b8bd
00000060: 7e3e a03e 2a09 3fbf ef19 ccbf 9391 083d
00000070: 8272 42bf 6c55 2b3e ed69 203f c357 1e3f
00000080: 72fa 0ebc ee5f 0ebf 758e 963f 0df9 d03e
00000090: d5cd f93f 7582 4a3f 043c 51bb 9366 dfbe
000000a0: 8618 c2bf 1906 d8be b132 7a3f a3e8 d13f
000000b0: 8001 bbbe 00aa a4bf 0eb0 ca3d a057 e93e
000000c0: 3604 583d e47f 8d3f 2283 893e c2cf df3e
000000d0: 3912 4fbf 6c1e a5bf 12da 40bf 6828 a7bf
000000e0: 96c5 4c3e 967c aabe c982 dcbe 5e0d 5f3e
000000f0: 39e3 473f d57f 51be 4233 b8be 700a 9bbf
00000100: 5132 33bf 02f3 843f 93e0 1cbf cd8e a3bf
00000110: 8fa9 b33d 214c 29bf 1fde 1b3f 1396 3bbf
00000120: 1dbc b03f abed 293f 98b1 f23e 91af 80bf
00000130: ecaf 453e 5edb e23d 5ee2 41bf dfc9 773e
00000140: 92f7 933f 0a98 b3bd 8046 3e3f b9e6 edbf
00000150: 7b53 93bc 221e ae3f 7ada 2940 d4c5 7c3f
00000160: 4818 c13e 47d7 8c3f a373 91bf f7d1 c63c
00000170: 5a93 2b40 c8dc 9d3f 0f5a 073f 77e9 073f
00000180: b681 59bf cc3b b2bf 7a19 cf3f 7ca8 253e
00000190: 99c9 ccbf 145c f7be f3b4 16be d7f1 a0be
000001a0: 65bc 153f 989c 743f c478 003f 60ee 373d
000001b0: 9110 523f d6a1 1dbb c8d9 723f 3f4c 3cbf
0.20089447 -0.4619031 -0.56880045 -0.55459094 0.59129184 1.5372151 0.516653 -0.5726766
-1.3266437 0.20213562 -0.05588287 -0.50367504 -1.4854724 -0.19012903 0.45356315 1.3064978
1.515684 2.0964992 1.709475 2.3817766 -1.1288023 -0.32105812 -1.1004603 -0.09003448
0.31297678 -0.7462336 -1.5945414 0.033341955 -0.75955975 0.16731805 0.6266163 0.61852664
-0.008726703 -0.5561513 1.1762224 0.4081501 1.951594 0.7910531 -0.0031926641 -0.43632945
-1.5163734 -0.42192152 0.977336 1.639912 -0.36524582 -1.286438 0.09896861 0.45574665
0.05273839 1.1054654 0.2685786 0.43713194 -0.8088718 -1.2899909 -0.7533275 -1.3059206
0.19997248 -0.33298177 -0.4306853 0.21782443 0.7808109 -0.2045892 -0.35976607 -1.211256
-0.6999865 1.038666 -0.61280173 -1.2777954 0.08772575 -0.6613179 0.60885805 -0.7327587
1.3807408 0.6637828 0.47401118 -1.0053579 0.1930539 0.11076997 -0.75736034 0.24198101
1.1559927 -0.087692335 0.74326324 -1.8586036 -0.017984143 1.3602946 2.6539598 0.9873936
0.37713838 1.1003197 -1.1363415 0.02427004 2.6808686 1.2333002 0.52871794 0.53090614
-0.8496355 -1.3924499 1.617965 0.16177553 -1.5999023 -0.48312438 -0.14717464 -0.3143451
0.5849059 0.95551443 0.50184274 0.044905066 0.8205653 -0.002405276 0.9486356 -0.7355384

weight f4 [8, 5]
00000000: a249 8dbe 7c93 5dbe 6ff4 f73f 1cc1 2b3f
00000010: 37c0 13c0 d904 96bf a9cd 233e 82ac 92bf
00000020: 478a 9f3d da45 903f d4bf afbf 8c82 e83e
00000030: 3598 49bf 9e5d 683f fa7d 65be 6ac9 babf
00000040: 6756 843f a5a7 c4bf fa39 203f f51b e03d
00000050: 092a d63d 896e 52bf 6c23 223f 15eb f4bf
00000060: fc13 953f 949a 053e 1e49 6d3f 6a41 5e3f
00000070: 51eb a2bf ecfa 813f 10ba 01bf 50a9 a2bf
00000080: 7896 713f d47c a53f 338d 2ebf d5f7 053f
00000090: 3520 7d3e aa0f 14bc 807c 82bf 5e57 9fbd
-0.2759524 -0.21638292 1.937147 0.67091537 -2.3086069 -1.1720229 0.15996422 -1.1458895
0.07790046 1.1271317 -1.3730416 0.454121 -0.78747874 0.9076785 -0.22411337 -1.4592717
1.0338868 -1.5363661 0.62588465 0.109428324 0.10457236 -0.82199913 0.633353 -1.9134241
1.1646724 0.13047248 0.9268969 0.86818564 -1.2728063 1.01547 -0.50674534 -1.270792
0.9437022 1.292872 -0.681842 0.52331287 0.24719317 -0.009036938 -1.0194244 -0.07780336

weight f4 [15, 7]
00000000: 912a b1be d0ac c73f e1f5 3c3e 6de3 be3e
00000010: 526b 11be f495 233f 6113 8cbe 217b a9bf
00000020: 0143 15be 2b87 09bf 587b 0bbf ecd4 5d3f
00000030: f9bd 61bf 1ba4 573f 2d95 923f f3ab e1bf
00000040: 2727 bfbf 4791 e1bf 8dc7 8f3d c5d3 8abf
00000050: ffda b93f 7a5c 01be 39e6 153f f289 3abe
00000060: 7ee3 50bd efda 823f c28b 633f 73ac e6be
00000070: e6e8 5cbf e808 123e 1f5d f33f 62f4 c83e
00000080: 4c0b b7bc 2bab 4abf 1a0d 01bf 8ecc b1be
00000090: 5854 133f 191e 93bf e352 1bbe 374a 3abe
000000a0: 2869 9dbd 040f b23f 0f7d 1c3f d078 f8be
000000b0: 1820 b8be a848 abbf b336 d93f 59fa 0440
000000c0: 7c14 81be 4800 333f c5ed 113f be07 823e
000000d0: 4d4c 03c0 1b47 0b3f 04f1 06bf abc2 5abf
000000e0: 50f0 1abd b491 973f 46cf c63e ddd3 37be
000000f0: d6a1 96bf 2741 acbe bd27 763f 01e6 93bf
00000100: ca6c 0f3f 8b7d 4b3f 4226 3bbe 80d1 3dbf
00000110: 3c08 aebd 3941 79bf da93 853d 8395 f3be
00000120: 6e13 53bf b8f4 513f f10c 26bf 274e a43f
00000130: 2a68 be3f 880f 1fbf 71ce 7b3f 9e20 dbbe
00000140: b955 23bf 8564 47be 752a f3be 3c58 473f
00000150: 0642 cb3d 0c5e 8bbf bc9e 02be 584c 83bf
00000160: 83b2 9bbf 45dd 413f cf75 d23e 59bb 913e
00000170: 60b5 2fc0 d8f4 55bf 8b5e f53e 8bdf 903e
00000180: f59a 223f 3011 b03b b256 febd 599e 54be
00000190: 0e1e 1840 682b cd3f c337 89be d26b bcbf
000001a0: 4391 f33f
-0.34602788 1.5599613 0.1845317 0.37282887 -0.14201096 0.63900685 -0.27358535 -1.3240701
-0.14576341 -0.53721875 -0.5448508 0.8665302 -0.881805 0.8423478 1.1451775 -1.76306
-1.4933823 -1.762246 0.07020483 -1.0845877 1.4519957 -0.12632933 0.58554417 -0.18216684
-0.050998203 1.0223063 0.8888513 -0.45053443 -0.86292875 0.1426121 1.9012793 0.3924895
-0.022344254 -0.7916743 -0.50410616 -0.34726375 0.57550573 -1.149356 -0.15168338 -0.18192373
-0.076860726 1.3910832 0.61128324 -0.48529673 -0.35961986 -1.3381548 1.6969818 2.07778
-0.2521094 0.69922304 0.5700343 0.25396532 -2.051532 0.54405373 -0.5271151 -0.8545329
-0.037826836 1.184134 0.38830012 -0.17951913 -1.1768138 -0.33643457 0.96154386 -1.1554567
0.56025374 0.7948844 -0.18276313 -0.74147797 -0.08497664 -0.97365147 0.06522341 -0.47575006
-0.8245152 0.82014036 -0.64863497 1.283635 1.4875538 -0.62133074 0.9836188 -0.42798322
-0.6380268 -0.19471939 -0.4749333 0.7786901 0.09924702 -1.0888076 -0.12755865 -1.0257673
-1.2163852 0.75728256 0.41105506 0.28463247 -2.7454453 -0.83576727 0.47923693 0.2829555
0.63517696 0.0053731427 -0.124188796 -0.2076353 2.3768344 1.6028872 -0.26800355 -1.4720404
1.9028705

weight f4 [7, 4]
00000000: 5fa2 53bf b0ae b4bf 0030 d2be 1890 8fbe
00000010: 1033 9abd d446 043f 597e ccbf be3a 093f
00000020: c051 13c0 b135 5cbf c473 d5bf e312 0a3f
00000030: 3ae0 0fbf 9c8f 0a3c 32dd 2b3f 10fb 94bf
00000040: f8fa 0b40 f681 d53d 4e14 443f 5b8a 8bbf
00000050: b43d 0f3f f166 47be c66c 7abe 6c6e f1bf
00000060: 3e6a 99b6 50f4 f6bf 4310 f2bf e16c 0640
-0.82669634 -1.411581 -0.41052246 -0.28039622 -0.07529271 0.51670575 -1.5976058 0.5360526
-2.3018646 -0.86019427 -1.6675954 0.5393507 -0.5620152 0.008457091 0.6713439 -1.1639118
2.187193 0.10425179 0.7659348 -1.0901598 0.55953526 -0.19472863 -0.24455556 -1.8861823
-4.5721235e-06 -1.9293308 -1.8911213 2.1003954

weight f4 [6, 4]
00000000: da84 c5bf 2eba a03e f770 3e3f 5e8f 9d3e
00000010: dddb 2ebf 1b58 27bd 0950 eb3f c6c3 11bf
00000020: 427d d93e 48ec 0cbf a223 3dbd 8303 acbc
00000030: 82aa 793f 7ced 87bf e96b e13f ab99 8dbe
00000040: 8f91 8f3f f1fe a8bd 39e7 65bf e371 72bf
00000050: 75b7 6c3e 9329 213f 8152 e73f fdfe 923f
-1.5431168 0.31392044 0.7439112 0.30773443 -0.68304235 -0.04085551 1.83838 -0.5693935
0.42478377 -0.55048037 -0.04617656 -0.020997768 0.975258 -1.061935 1.7611057 -0.27656302
1.1216296 -0.08251751 -0.8980594 -0.9470503 0.23116858 0.6295406 1.8072053 1.1484066

weight f4 [17, 7]
00000000: 02a7 8c3f cc4a 44bc 41fa b93f ea3b 1040
00000010: a56b 9e3f e866 f5be b08e e83e 0e91 af3f
00000020: b5ed 843f 7d2c 0ebf 7ed4 e53e edc6 823e
00000030: 0488 013e 65ee b23e 768a 43bf 1b4e 613e
00000040: fa9c 1a3d 1dfd cb3e 62bd a03f 7acd 99bf
00000050: 8e7a 96bc bfa6 e43f 5fcb 88bf 21c4 5940
00000060: 15c8 0ec0 dd3f 3f3f 30f5 38bf f699 44be
00000070: bc2b acbe d7d2 a23f daa8 ac3f a7f0 353e
00000080: e0c9 f6be 86f2 8cbe 1bfd fa3e eaad b13e
00000090: 9f65 cdbf 47e8 13bf dcac 183f 665a e03e
000000a0: f0a4 363f 75c1 aabf 7e1b b8bc ad2e b7bf
000000b0: d52e 183f ed2d 94bf d359 333d 86da 513e
000000c0: 8dd5 9b3f 36bb 6e3e b2c2 813e 2a27 0fbf
000000d0: 6933 e4be 952a a8be 4842 c7bf d089 d0ba
000000e0: 16ca 8cbf 80f1 2bbf 5710 cebf 9a8f a1bd
000000f0: 6938 273f 29a1 843e a0ae 2abf 730a 8ebf
00000100: 691e a83e ea23 9b3b a2fa 953e 063d b53e
00000110: a9e3 943d 45af a7bf b065 2fbf 2fe7 15be
00000120: 9045 e2be b493 0ec0 e21e 86bf ea23 3cbe
00000130: 0ce5 323f ed6b ffbf d063 1ac0 8a3a 653e
00000140: 184c b6bf 8e69 6f3e 16db ddbf 9f73 0cbf
00000150: d6b3 23bf af76 22bf 3e19 793f ede3 563e
00000160: 5705 cabe dd81 6abf acfa 0e3f 6f7c 48bf
00000170: c70f 163f 81dd 9ebf 531e 913f 1be1 3b3f
00000180: 399c 1f3f 16e6 eb3f a475 71bf f39a 4ebf
00000190: 0776 b33e 9af0 cdbf ae0d 1ec0 dcb7 2dbf
000001a0: 4209 15c0 3fef e93d d5db 39be 502b 4740
000001b0: 377a 3f3e cc85 27bf a12d a53c 7dc2 043f
000001c0: 2b1a f73f ab0c 2cbe 12ef f2bb 9ebc 603e
000001d0: 60d3 113f 31c7 913f 05fa 87bf
1.0988467 -0.011980724 1.4529496 2.2536569 1.23766 -0.47930074 0.45421362 1.3716142
1.0385042 -0.55536634 0.4488868 0.25542393 0.12649542 0.34947506 -0.7638315 0.22002451
0.03774736 0.39841548 1.2557795 -1.2015831 -0.018368986 1.7863387 -1.0687064 3.4025958
-2.230962 0.7470682 -0.72249126 -0.19199356 -0.33627117 1.2720593 1.348903 0.17767583
-0.48200893 -0.2752878 0.4902123 0.34702998 -1.6046637 -0.577763 0.5963876 0.4381897
0.71345425 -1.3340288 -0.022474047 -1.4311119 0.5944646 -1.1576515 0.043786835 0.20493516
1.2174546 0.23313603 0.25343853 -0.55919135 -0.44570473 -0.32844988 -1.5567102 -0.0015910212
-1.0999172 -0.67165375 -1.6098737 -0.07888718 0.6532045 0.25904205 -0.66672707 -1.1096939
0.328357 0.004734506 0.2929278 0.3539812 0.07269985 -1.3100363 -0.6851454 -0.14638971
-0.44193697 -2.227765 -1.0478175 -0.18373075 0.6988075 -1.9954811 -2.412342 0.22385612
-1.4241972 0.2338011 -1.7332485 -0.54863924 -0.6394628 -0.63462347 0.9730414 0.20985384
-0.394572 -0.91604406 0.55851245 -0.7831487 0.58617824 -1.2411348 1.1337379 0.7339036
0.6234775 1.8429592 -0.9432013 -0.80705184 0.35050985 -1.6089051 -2.469585 -0.6785867
-2.32869 0.11422586 -0.18150266 3.1120186 0.18698965 -0.6543853 0.02016336 0.51859266
1.9304861 -0.16801707 -0.0074137533 0.21946952 0.5696316 1.1388913 -1.0623175

weight f4 [128, 46]
00000000: 7bc6 cdbd 8845 0c3e 414a 13bd 1e36 0dbd
00000010: 3f1d e33d 6797 a13d 00d4 0c3e 0f0b b43d
00000020: 3e3f 60bd b6e1 d3bd f562 39bb 31d5 f93d
00000030: dcd4 5abd f7b1 0cbe 0dfa 823d 3db8 1e3e
00000040: b892 f2bc 20ca e6bd f346 0cbe 8202 153d
00000050: 2a04 98bc 8d92 90bd a913 873c ba8e 823d
00000060: 788d df3d a2a5 fc3d 9806 d1bc 587b 0abe
00000070: 0412 fbbd 7c68 123e 3c01 873d 8f04 863d
00000080: 2323 0cbe 4afd 003e 5ff4 103e c8c0 0b3e
00000090: 919a 0ebe 895f 69bd d595 d5bd 9d3a 083e
000000a0: dfbb 93bd 170e 78bd a25e 843d 35d4 9ebd
000000b0: 7b0d 86bd 6605 9fbb 3b9d 1bba 8b95 e1bd
000000c0: e123 f63d b52d 87bd cd02 303d b1e3 073e
000000d0: 7080 4d3d 2ac3 983c 0ff0 f63d 3463 853c
000000e0: afa1 99bd ef69 0c3e d394 083d 36fa 14be
000000f0: b484 2fbd 187e ccbd 94b0 043e e76f acbc
00000100: 1fea 0abe f473 acbc e23b ff3d 2769 653c
00000110: d5c7 913d 56ef 153c aa0c 3b3d eb99 f9bc
00000120: d296 67bd df9e 04be 7b3c fabd 3934 743d
00000130: 580f b9bd b05f a03c b896 7f3d 937a e03c
00000140: 182d d9bd 5a4b 083e dd1f b3bd c774 0b3e
00000150: dfb6 eabd 0d4d 53bd f21b b23d 3f4a 99bd
00000160: 6273 0a3e 0c89 aebd 38bd 0dbe 40e7 9abd
00000170: d6b3 a13c 3a3b f23d 34a1 a7bd 0ec1 093d
00000180: b96d 4abd 79e9 ddbc 4229 ba3d e154 0cbe
00000190: 5ca1 c13b 0452 053e 23f6 afbc 0184 113e
000001a0: 4044 8fbc 034d 073e 617d 1abe 70f6 23bd
000001b0: df89 49bd ae25 ca3c d16b 5c3d 8b53 bb3d
000001c0: 1003 253c e20b f0bc 321a 063e 34e2 36bd
000001d0: 659c f33d ce6b c0bd b321 e5bc ee27 01ba
000001e0: 4702 563d 3397 b23d 815e efbb bc9d 05be
000001f0: 4c79 b23d e808 643d b5e8 2b3d 3fe1 d3bd
00000200: 3d4e b53d 9de6 223e f4dd a83b 249e 1bbe
00000210: d89a e43d edbc c5bd aeb3 493d db77 033d
00000220: ecb3 a6bd d076 783d a998 f7bd 109d 033d
00000230: 0bd0 cabd 4464 ddbc 9c55 ef3b 83b3 053e
00000240: 32bf b7bd 270e b53d 82b9 02bd 2631 aebd
00000250: a718 02be 8560 f0bd 1fbb 233e cf35 b7bc
00000260: 0927 8a3c 89b8 403d 9c3f d53d 9c26 043e
00000270: f952 dc3d d9f0 00be b758 e53b 510a e1bd
00000280: ba1e 72bd bca8 ec3c 4edb 073e d451 f8bd
00000290: a905 b13d 47af 97bd 31a6 45bd a84a dc3d
000002a0: 2abb a7bc f0e1 473c 1729 b6bd 140e 0c3e
000002b0: 4093 febc 1240 c9bd 3079 153d 6d7e ecbd
000002c0: b7bf ffbd f581 6dba 5c5e e13d 5ceb 2abd
000002d0: 8633 863d 40b3 113e 057e d43d 0bfc 93bd
000002e0: b726 9bbc 9b11 52bd adf3 f3bd a564 e7ba
000002f0: a5fe e03d 8638 003e 2082 783c 6020 013d
00000300: 73f9 73bd 5b37 ef3d a0c3 84bd 639c d9bd
00000310: 3839 783c 6000 a53d 7510 0cbe b4b6 083e
00000320: ff42 633d 7f08 d4bd f30b debc 5f10 013e
00000330: cedc e3bd 6717 34bd a6bc 4c3d 590e 04be
00000340: a5ec 973d d0dc b83d 7bd6 cd3d f701 b9bd
00000350: 24d5 0e3e f523 aebd c4fd 103e bba8 12be
00000360: 56a2 06be 9da8 b63d 898f 603c aee4 313c
00000370: fe46 a7bd 381e 84bd 1a5a 3bbd 8678 0fbe
00000380: 0bff 663b b8e4 ee3c 7f05 7fbb ebd9 383d
00000390: 39e8 173e efa9 2e3d a015 61bd cff4 8dbd
000003a0: 0ec3 dbbd 91d1 cfbd 7e90 babc 44c0 0bbd
000003b0: 4d78 4f3d 5285 91bd 69eb ec3d 4883 d4bd
000003c0: 277c e4bb 60f6 0e3e 7d64 143e c753 afbd
000003d0: 7b43 bc3c 2063 6c3c 1bab 8bbd 2fc5 50bd
000003e0: 4d03 383d 9b18 d2bd e75f 133d 4b59 783d
000003f0: 462e 50bd 6781 ed3d abdb 8ebc e804 9c3d
-0.10047623 0.13698399 -0.035959486 -0.03447544 0.110895626 0.07890206 0.13752747 0.08791172
-0.054747812 -0.10345785 -0.0028287743 0.12198866 -0.053425655 -0.13739763 0.0639535 0.15499969
-0.029610977 -0.11269021 -0.1369894 0.036379345 -0.018556673 -0.07059202 0.016488867 0.06374879
0.10915655 0.123362795 -0.02551584 -0.13523614 -0.122592956 0.1429767 0.06592032 0.06543838
-0.13685279 0.12596622 0.1415572 0.13647759 -0.1392615 -0.056975875 -0.10428969 0.13303609
-0.07213568 -0.060560312 0.06463362 -0.07755319 -0.0654554 -0.0048529385 -0.000593621 -0.11014851
0.12018562 -0.06600515 0.04297142 0.13270451 0.050171316 0.018647749 0.12057506 0.016282655
-0.07501542 0.13712285 0.033345055 -0.14548573 -0.042851165 -0.09984988 0.12957984 -0.021049453
-0.13565873 -0.021051385 0.124625936 0.014002121 0.07118193 0.0091513 0.045666374 -0.030468902
-0.056540318 -0.1295123 -0.12218567 0.059620116 -0.0903613 0.019576877 0.062399596 0.027402198
-0.10604304 0.13309994 -0.08746312 0.13618766 -0.11460661 -0.051587153 0.086967364 -0.074848644
0.13520578 -0.08522233 -0.13841712 -0.07563639 0.019739073 0.11827703 -0.08185044 0.033631377
-0.049421046 -0.027088868 0.090899006 -0.13704254 0.005909128 0.13019568 -0.021479672 0.14210512
-0.017488599 0.13212971 -0.15086891 -0.040029943 -0.04920375 0.02467617 0.05381376 0.09146794
0.010071531 -0.029302541 0.1309593 -0.044649318 0.11895064 -0.09395562 -0.02797017 -0.00049269095
0.052248266 0.08720245 -0.007304967 -0.13048452 0.08714542 0.055672556 0.041969974 -0.10345697
0.088528134 0.15908284 0.005153412 -0.15197045 0.111623466 -0.09655175 0.04924362 0.032096725
-0.08139786 0.060660183 -0.120896645 0.03213221 -0.09902962 -0.02702535 0.0073039066 0.1305676
-0.089720145 0.0884059 -0.031915195 -0.08505468 -0.12704717 -0.1173716 0.1598935 -0.022364525
0.016864317 0.047050986 0.10412523 0.12905353 0.10758013 -0.12591876 0.006999101 -0.10988296
-0.059111334 0.028889053 0.13267252 -0.121249825 0.08643658 -0.074064784 -0.048254196 0.10756427
-0.020474989 0.012199864 -0.08894556 0.13677245 -0.031076074 -0.098266736 0.036492527 -0.11547551
-0.124877386 -0.00090601976 0.11004326 -0.041728362 0.06552796 0.14228535 0.10375599 -0.07225808
-0.01893936 -0.05128632 -0.11911712 -0.0017653896 0.109860696 0.12521562 0.015167743 0.031525016
-0.059564065 0.1168048 -0.06482625 -0.106255315 0.015150361 0.08056712 -0.13678153 0.13350946
0.055483814 -0.10353183 -0.027105307 0.12603901 -0.111260995 -0.04396763 0.049984597 -0.12896098
0.07418183 0.09026492 0.100506745 -0.09033578 0.13948494 -0.08502952 0.14159304 -0.14322178
-0.13147864 0.08918879 0.013706096 0.010857744 -0.081678376 -0.06451076 -0.045740224 -0.1401082
0.0035247232 0.029161796 -0.0038913188 0.045129698 0.1483468 0.04264253 -0.054952264 -0.06931459
-0.10730563 -0.101473935 -0.022773977 -0.034118906 0.050651837 -0.07105507 0.115683384 -0.103766024
-0.006972808 0.13961172 0.14491458 -0.08560901 0.022981396 0.01442793 -0.06819745 -0.0509693
0.044925023 -0.10258599 0.03598013 0.06063203 -0.05082538 0.11596947 -0.01743873 0.07618123

bias f4 [128]
00000000: 076b f9bd 856e dd3d 9e68 173e de3d a7bd
00000010: 3c20 223d 6f7d 24bd 7b5f bf3d 36b0 a9bd
00000020: 8963 ef3d f3a5 163e 1fc8 bf3d 9f6a 9bbc
00000030: d25b f13c 1961 773d 20f4 a3bd 8fca 7dbd
00000040: 9de3 0fbe 93df e63d 0e3b 8abd c883 063e
00000050: b5db 86bc 0c19 49bd 2cd9 aa3d d7b5 1ebc
00000060: 448d d3bd ab1d 593c 9928 6fbd 6cc1 dcbd
00000070: df0b c9bd 46aa 623d a535 763c e464 62bd
00000080: 5c92 2f3d 02ce 3ebd 9376 04be ca01 643d
00000090: c589 53bd 833e 2ebd 4a86 d33d 4723 ff3d
000000a0: 7c35 10be 86d9 0b3e b4ad 0f3e 6e11 ebbd
000000b0: ef16 14be c7ec edbd 9cd7 50bd 0284 c4bb
000000c0: e410 153d a4cd 0e3d 419a 113d f89b dbbd
000000d0: ab27 0d3e 7db9 f93d 8418 a13d 783f 093d
000000e0: ef3c b3bd 091a d33c d27c d9bd 1997 0d3e
000000f0: 6642 0cbe 5a2e fc3d 76cb fb3d c5eb 91bd
00000100: fd1c ebbd e3ca 793d 3522 e7bd de0a 12be
00000110: 6971 a1bd 8b29 e13d d62d a6bd 764b 83bd
00000120: 22c0 6dbd 069b d23d 239f 3c3d 7460 9e3d
00000130: 408e c9bc 7074 aebd 59be 353d 79fb 673d
00000140: 4063 f73d 2aa0 08be 62e8 d9bd e408 bc3d
00000150: 721e 313d 70e0 d83d 005e c9bc 8955 1a3e
00000160: c0f7 8a3d 5b49 77bd d54f 96bd 83e0 133d
00000170: bdb4 a9bb d776 a8bd ad70 9fbd 3625 6b3d
00000180: 7644 953d 85b4 183e 8702 4cbd 29ff cebd
00000190: 1d83 6cbd 30f7 c7bd 9d02 113e c09c 87bd
000001a0: aa86 8ebd 482c e73d d573 fa3d 3092 0dbe
000001b0: 7dce 62bc 2ba8 893d dfea fb3c 34fe a4bd
000001c0: 3907 d2bd 1d25 d8bd 23ef 3c3d 8fd3 8abd
000001d0: ead6 06be 8a7e 113e 0cf9 9f3d b6c3 21bd
000001e0: 769e ee3c d76d 1fbd ba6f c3bd e14b 0dbe
000001f0: 845a cf3d e5fc 05be 8f9f e0bd 3304 013e
-0.12178617 0.108120956 0.14786002 -0.08166097 0.039581522 -0.040158685 0.09344383 -0.08285563
0.11688907 0.14711742 0.09364342 -0.01897174 0.029462729 0.060395334 -0.080055475 -0.061960753
-0.14051671 0.11273112 -0.06749545 0.13136208 -0.016462186 -0.049096152 0.083422035 -0.009686909
-0.10329679 0.013251702 -0.058388326 -0.1077908 -0.09816717 0.055338167 0.015027438 -0.055271998
0.04286419 -0.046583183 -0.12935857 0.05566577 -0.05164506 -0.042540085 0.10328348 0.124579005
-0.14082903 0.13657197 0.14031106 -0.11477934 -0.14461873 -0.11617427 -0.05098687 -0.005997182
0.03639306 0.034864083 0.0355475 -0.10723108 0.13784663 0.12193582 0.07866004 0.033507794
-0.087518565 0.02576925 -0.10619511 0.1382717 -0.13697204 0.12313528 0.122946665 -0.071250476
-0.114801385 0.060984503 -0.11285821 -0.14261958 -0.078829594 0.10994252 -0.08114211 -0.064108774
-0.05804456 0.102834746 0.046050202 0.07733241 -0.024603963 -0.085183024 0.044370983 0.056636307
0.12079477 -0.13342348 -0.10640027 0.09181383 0.043241926 0.10589683 -0.024580956 0.15071692
0.06785536 -0.06037269 -0.073394455 0.036102783 -0.0051790164 -0.08225792 -0.07785163 0.057408534
0.072884485 0.14912613 -0.049807098 -0.10107262 -0.057742227 -0.09763944 0.14161153 -0.066216946
-0.06959279 0.11287743 0.122291245 -0.13825297 -0.013843176 0.067215286 0.030751644 -0.08056298
-0.10255284 -0.10553954 0.046126496 -0.06778633 -0.1316792 0.14208427 0.07811174 -0.039493285
0.029128294 -0.03892311 -0.095427945 -0.13798477 0.10124686 -0.13084753 -0.109679334 0.12599258

weight f4 [128, 128]
00000000: aefd 80bd f95f 0cbd e80c b1bb 70ba b9bd
00000010: 3090 aebd eed2 a0bd 4b76 96bc f758 17bd
00000020: 2fb2 753d 0169 4e3d 67cc 9e3d 471d a8bd
00000030: 7a88 47bd 20f2 5e3d f4a8 e73c ee3a 82bd
00000040: 3184 763d 6954 57bd c29e a03d c50f 9cbd
00000050: 57c1 1b3d 1bec 35bc 594d acbd 301c 1b3d
00000060: d4f7 1fbd 561c 1cb9 7aaa 03bd 1c75 b6bc
00000070: 3616 edbc 670f 003d 7bc0 42bc f21b 593d
00000080: 3a82 0c3d bf16 fcbb df19 f13c 19eb 0ebd
00000090: 623c 8fbd 28f9 85bd 47df 87bd e4a9 a2bd
000000a0: 187c fd3b 3d4d 63bc 74be aebd 79fa 213d
000000b0: c829 513d 5f48 8c3d 51e7 5bbb e3ec 50bc
000000c0: c25f 473d 3589 aabd bab0 86ba ed68 4e3d
000000d0: f62a 623d a388 9c3b ba9a 32bc fd5d d83c
000000e0: 3d19 3f3c 8097 69bb 1422 833d 956f 8c3d
000000f0: ff25 6cbd 1741 933d 1c8e efbc 569e 4c3c
00000100: 36f7 9d3d 51a8 3cbd b14b 1a3d 91f9 89bc
00000110: b350 6dbd 109c 41bc 1882 8c3d b88d 303d
00000120: 43b0 56bd 58b5 953d 1579 463c b314 903d
00000130: b495 a83d 4729 04bd 0014 813d ae4a a7bc
00000140: 6a3b ba3b 9a03 81bb 8096 b0bb 7b7c 5bbc
00000150: 84e8 a1bd 51cf cb3a c3c7 8f3d 98a9 ba3c
00000160: f688 b4bd a10b 0f3c ef50 a4bc 40cd b33c
00000170: 5f45 b2bd 57d1 4a3c fc19 8dbd 99d1 343c
00000180: c36d 433d f69d 603d 73aa 87bc 876c 933d
00000190: b20d 51b8 5d7e 6fbd 4ec3 0a3d 0aea 46ba
000001a0: 54f1 9abd bab1 373d 5842 a33d 461a 303d
000001b0: 4e66 9fbc 7071 a6bd c7ba 903d 696e 5cbd
000001c0: f5b7 073c 893b a8bd 571d 503d 330f 993c
000001d0: f61d a33d 1606 1a3d 4e68 bcbd d3ca 823d
000001e0: 2037 9fbd 4e16 43bd aea8 1f3d 7d8a 5ebd
000001f0: 133d 893c f737 2b3b cecc 81ba 0c13 63bd
00000200: 4f9b 753d ba46 cc3c f23e 493d ba1b ae3c
00000210: f1b4 50bd 027e e6bc a1fb 1c3d 1c70 9dbd
00000220: 9466 24bd d2c8 8bbd 2742 48bd 6150 993c
00000230: b8c5 90bb 558f 183d c0c9 9a3d f395 063d
00000240: 0341 b53d e3f9 e5bb e47c b53d 936a 553c
00000250: 2278 d4bb c1b6 f63c 56b0 70bd 03f2 973d
00000260: c81d a93d c3dc 99bd 77e3 2ebd e5ee 933d
00000270: 3322 5c3c 2bc7 e0bc fc1f 34bd a705 aebc
00000280: c5a3 cbbc 8b93 b83d 0849 27bd d520 6c3c
00000290: 2df2 be3c e607 2bbd 46d8 beba 6d54 8c3b
000002a0: f7b0 a03d edec 933d cc18 ab3c bb89 ffbc
000002b0: 7a4d 38bd 1c64 c3bc 1935 a43d 5e80 7c3d
000002c0: 5d43 b43c b0fa 8abd e76d e03c 1029 9a3a
000002d0: b316 893d 351f 573d 17ba 833d 5a9d b93c
000002e0: 6586 d63c e3f5 523c 72bc a33d 82ab 9c3d
000002f0: 99e7 433d ec0c a3bc e3f3 45bc b1a1 c73d
00000300: 80d8 93bc 4bb6 9f3c 2bbf db3c 2890 1e3d
00000310: 1c81 3bbd dbf3 e5bb 3eb4 39bc 8e91 fdbb
00000320: e10c 86bd 5141 353d f807 87bd 0b24 a4bc
00000330: a55b b33c 1d67 973d 8759 98bc c79c 62bd
00000340: 21ec 3bbd 5892 dd3a 6223 3fbd 4aed e83c
00000350: 504b 343d d6d0 b13d e40e 683d e421 c9bc
00000360: 597e d93c 4b1b 8a3c 796f 653d 0df6 b6bc
00000370: 2d56 a13d 0770 f73b 6451 853d 420d a13d
00000380: 8986 1bbc 0f40 a23d e05a 2fbd 9421 463d
00000390: 4173 6bba 3a7c 7fbd 4899 c1bc bc0f 483d
000003a0: 8c16 833d c56c 93bd 7085 4cbd 26e5 253d
000003b0: d4ed 2dbd a4e2 46bc f041 8abd 11de a43c
000003c0: a5e3 71bd 8369 613c 1f05 0d3d bf26 b33c
000003d0: 0e01 95bd ec47 6c3d 4561 9f3d e17f b5bd
000003e0: a776 8d3d d5d7 b5bd 2b5f 5b3d d62b d33a
000003f0: b0d8 963c c1dd 04bd 975d 8f3d f8d7 d33c
-0.062983856 -0.034271214 -0.00540315 -0.09068763 -0.08523595 -0.07852732 -0.018366953 -0.036950078
0.059984382 0.05039311 0.077538304 -0.08208709 -0.04871414 0.054430127 0.028278805 -0.06358896
0.06018466 -0.052570734 0.07842781 -0.07620195 0.03802618 -0.011103655 -0.084131904 0.03786868
-0.039054707 -0.00014887875 -0.032145 -0.022272639 -0.028941255 0.03126469 -0.011886711 0.053005166
0.03430388 -0.0076931412 0.029431282 -0.034892175 -0.06993939 -0.065416634 -0.06634384 -0.0794256
0.0077357404 -0.0138733955 -0.0853242 0.03954551 0.051065236 0.06849741 -0.0033554623 -0.012751791
0.048675306 -0.083269514 -0.0010276057 0.050393034 0.055216752 0.0047770306 -0.0109011475 0.026412005
0.011663732 -0.003564328 0.06402984 0.0685722 -0.057653423 0.07190149 -0.029242568 0.012488922
0.07713167 -0.046058957 0.03766984 -0.016842635 -0.05793829 -0.011816993 0.06860751 0.043103904
-0.05241419 0.07309979 0.012113829 0.07035198 0.082316786 -0.032265928 0.06302643 -0.020421352
0.0056833522 -0.003937197 -0.0053890347 -0.013396378 -0.07905677 0.0015549456 0.070205234 0.022785947
-0.08815186 0.0087308 -0.020058123 0.021948457 -0.08704638 0.012379012 -0.06889722 0.0110363
0.0477121 0.054838143 -0.016560769 0.07198434 -4.9842238e-05 -0.05847012 0.033877663 -0.0007587975
-0.07565561 0.044847228 0.079716384 0.042993806 -0.019457962 -0.08127105 0.07066875 -0.053816233
0.008283605 -0.082144804 0.05080923 0.018684005 0.07964699 0.03760346 -0.09199582 0.06386342
-0.07774186 -0.047628693 0.038979225 -0.05433129 0.016752755 0.0026125887 -0.0009902955 -0.055438086
0.059962567 0.024936069 0.049132295 0.021253455 -0.05095381 -0.028136257 0.03832591 -0.07687399
-0.04013689 -0.06825413 -0.048891213 0.018715085 -0.004418101 0.037246067 0.07558012 0.032857846
0.088502906 -0.007018314 0.088617116 0.013025898 -0.0064840475 0.03011644 -0.058761917 0.07419207
0.082576334 -0.0751281 -0.042697396 0.072233 0.013435888 -0.02743872 -0.043975815 -0.02124293
-0.024858365 0.090125166 -0.040841132 0.014412125 0.023308838 -0.04175558 -0.0014560304 0.0042825253
0.07846253 0.072229244 0.020885848 -0.031193605 -0.044995762 -0.023851447 0.0801794 0.061645858
0.022004778 -0.06786096 0.027396156 0.0011761505 0.06693783 0.052519996 0.06431978 0.022658039
0.026187131 0.012876007 0.079949275 0.076499 0.04782829 -0.019903623 -0.012082073 0.09747637
-0.018047571 0.019496104 0.026824554 0.038711697 -0.045777425 -0.007017595 -0.011334477 -0.0077382987
-0.06545425 0.044251744 -0.06593317 -0.020036718 0.021894285 0.07392714 -0.018597377 -0.055325296
-0.045879487 0.0016904576 -0.046664603 0.02843346 0.044017136 0.086824104 0.056654826 -0.024552293
0.026549505 0.016858717 0.05601451 -0.022334123 0.07877765 0.0075511965 0.06509665 0.07863857
-0.009492525 0.079223745 -0.042811275 0.048371866 -0.0008981713 -0.06237433 -0.02363266 0.04884313
0.06400785 -0.071984805 -0.049931943 0.040501736 -0.04246314 -0.012138996 -0.06750858 0.02012542
-0.05905499 0.013758066 0.034428712 0.021869062 -0.07275592 0.057685778 0.077822246 -0.088622816
0.06907397 -0.08879057 0.053557556 0.0016111087 0.018413872 -0.032438044 0.07000273 0.025859818

bias f4 [128]
00000000: 522e 6c3c 97d4 1dbc 5f00 9d3c 6cdf 56bd
00000010: 4fd8 ba3d 5a15 03bd e27f 0e3d 7449 a13d
00000020: 0de6 26bd 19d9 f0bc f4c4 90bd c2e8 a83d
00000030: c2a6 77bd 5571 8b3d 4739 55bc 5b06 a5bd
00000040: c88d 45bd 2e40 44b9 384b a03d 24d6 b7bd
00000050: 9381 44bd 51db 7a3d 85f7 05bd 570c 39bd
00000060: 5be0 c83c d8ba 17bd 76d8 43bd 5815 b43d
00000070: b9c8 bbbb d34c a1bc 11db 93bd 558b 003d
00000080: 7404 6fbc 481b 653d a507 803c 0b1a 823d
00000090: 9813 913d 39f8 81bd bf59 8cbb 1e59 373d
000000a0: a3dc 983d 44ff 9e3d c71c a93d a8a6 babd
000000b0: 2fa4 e9bc 704b f8bb c7e4 943d 5509 a33d
000000c0: 143e abbd 50d7 afbc a5c0 31bd 3635 84bd
000000d0: c312 5fbd b923 95bd 0296 823d 09a0 32bb
000000e0: 442c 8c3d 5884 80bd 6d68 6b3d f592 edbb
000000f0: 2afe 8f3d 56ae 2e3d 3625 2ebb 7006 693d
00000100: 0ccf ecbc 0c30 c03c b029 9f3c c37a 8dbb
00000110: dcc0 27bc 6ffa a03d 5a15 713c 5107 60bd
00000120: 9bf4 513d bed8 77bd 4f72 943d c54b 9e3d
00000130: 86a4 d0bc ca27 bb3c 7f0f 073d 7c90 083d
00000140: 977d 8ebd f093 9a3d 073c 59bd 770d a53c
00000150: 13fd 6dbc 5145 95bd 8c97 ea3c d141 d4bc
00000160: c6d0 1a3d ac81 233c e441 23bd 228d 913c
00000170: e8ba b33d 2161 9b3c 2c2d 98bd 2f65 64bd
00000180: 44e9 783d 3f95 7fbd 2b3e e13c d92f 293d
00000190: b0c4 933d 7663 773d 4d87 dc3c 0191 4f3d
000001a0: 1e50 093b 62bc 553b 9079 663d 5870 63bd
000001b0: 7745 1abd f90e ac3c 84e1 8bbd 1517 503d
000001c0: 4fa2 863d ae2d 20bd c89f 18bd ae22 31bd
000001d0: be1b 713d e484 15bd 9569 79bc ebdf 6cbd
000001e0: 0610 cc3c a1f3 f03b f9b0 da3c c758 adbb
000001f0: 0d9c 273d f6b1 9cbc 27c5 943d fd84 fbbc
0.0144153405 -0.009633205 0.019165216 -0.052459165 0.09123289 -0.032002784 0.034789927 0.07875338
-0.040746737 -0.029400395 -0.07068816 0.0824752 -0.060461767 0.06808726 -0.013014144 -0.08057853
-0.048230916 -0.00018715925 0.07826847 -0.08976391 -0.047975134 0.061244313 -0.032706756 -0.045177784
0.024521044 -0.037043422 -0.047813855 0.087931335 -0.005730715 -0.019689953 -0.07219518 0.031382877
-0.014588464 0.05593422 0.015628645 0.063526236 0.07083815 -0.06346173 -0.0042831595 0.044762723
0.07463958 0.07763532 0.08257442 -0.091138184 -0.028520672 -0.007577352 0.07270198 0.07960764
-0.0836145 -0.021464974 -0.04339661 -0.06455462 -0.054461252 -0.07282204 0.06376268 -0.0027256033
0.068443805 -0.062752426 0.057472635 -0.0072501847 0.070309 0.04264673 -0.0026572472 0.056890905
-0.028907321 0.02346041 0.019429058 -0.004317613 -0.010238852 0.078602664 0.014714563 -0.054694477
0.051258665 -0.060509436 0.07248365 0.07729296 -0.025469076 0.022846121 0.032973763 0.033340916
-0.06957548 0.07547748 -0.053035762 0.020148022 -0.01452567 -0.07288612 0.028636716 -0.02591029
0.037796758 0.009979647 -0.03985776 0.017767493 0.08775884 0.018967213 -0.07430491 -0.05576056
0.060769334 -0.06239819 0.027495464 0.041305397 0.072152495 0.060397588 0.026919985 0.050675396
0.0020952295 0.0032613506 0.056268275 -0.05552706 -0.037663903 0.021003233 -0.06830123 0.050803263
0.06573927 -0.039106064 -0.037261754 -0.043245964 0.058864348 -0.036503688 -0.015222927 -0.057830732
0.024909984 0.0073532616 0.026695715 -0.005290124 0.040920306 -0.019127827 0.07264166 -0.030703062

weight f4 [128, 128]
00000000: 6f88 923d 0a45 253b 90b3 213c fe58 15bd
00000010: 6365 6cbd 62f9 65bd 14a7 83bd 94b0 693d
00000020: 89e2 793c 5670 413b 9823 053d 4a2a 333d
00000030: 2dc8 8b3d a55d aa3d e5f7 ba3d 2e7e 13bd
00000040: 1140 ad3d b640 e3bd 6a1f d93c ac23 49bd
00000050: e01c 883d c6cf 033d 4565 9bbd 7092 9e3c
00000060: 8ddc 5dbd d625 b83d eca1 d7bc 3bf7 73bd
00000070: add5 71bd 843b ab3d fda6 ad3c e1b2 283c
00000080: bdad 683d e7bc 67bc b036 7f3d ca08 273d
00000090: 024d 613b c678 aa3d cd33 77bc 1fd7 34bd
000000a0: 16c9 cbbd 683e 9cbd 47b4 7ebd f5ad 023d
000000b0: 91e1 fe3c 1d0e 92bc 7b69 7e3c 4628 b43d
000000c0: 8654 5cbc fca0 2a3d dc45 da3c 8364 b73d
000000d0: 00e4 b83d ef43 99bd 0ab3 50bd 0c5f 65bd
000000e0: 60b9 35bd 58e0 a3bd 4571 aabd 18ae 733d
000000f0: d05e 373d bc15 893d a2f1 95bb 41ca 333d
00000100: 6fca b3bd 08b8 a33b 7d39 623a 93f3 ef3b
00000110: 45ab eebb 595e 523d eb39 97bc 87ce d4bc
00000120: c551 6cbb 8cda 4ebc 9bce 01bd c4ce ab3d
00000130: 059b 563d 22ca 7d3d 1a36 2ebd 340b 913d
00000140: b376 7bbd 12d6 6f3d 90b7 e2ba 6d12 b7bc
00000150: fe1a 52bd 146c 3bbb 0d6f e5bb 6968 0abb
00000160: c6c9 4f3d 8597 a0bd de4f 57bd 86fd 3abd
00000170: 9027 98bd 05a0 70bd 4583 733d ab44 923c
00000180: 8c19 9ebd 6114 96bd 8ae4 733d 7463 ddbd
00000190: 21d3 6a3d 5ad0 683d 3b74 85bd 2da5 1b3d
000001a0: b67b 24bd b165 8ebc cc06 603c 8ff2 bcbd
000001b0: b875 5ebd 146a b53c b37a 4dbc 8062 92bd
000001c0: 1f98 3fbc 6c16 53bc efe8 b43c e9b5 363d
000001d0: 4656 83bd 258b c5bc 6360 c03d 43c4 9bbd
000001e0: 9f29 af3d c8b3 ccbd e013 8c3d 60b8 6d3c
000001f0: af15 9abc 3ddd b5bc 8103 163d 45e5 d73b
00000200: 3112 373d ff9d bd3d 3013 7fbd 9c40 58bc
00000210: db05 64bd 6303 36bd 883d d93c 0987 52bb
00000220: 65ee 3237 1b9c 97bc 0a86 54bc 03d5 573d
00000230: 578f 853c 3c94 483d ce8c 25bd f3d0 f53c
00000240: ee1c 51bd 1f14 96bb d070 ddbc 3aaf cbbc
00000250: 8fe8 3b3b 694f 4a3d 170b b23d b5ae 2cbd
00000260: 73cf a8bd d62c bebc d4fc 253d 6060 8e3d
00000270: 566a 0b3d 0df9 b9bb be38 8a3c 980a 8a3d
00000280: 1bbc 5cbd 1ed7 293d 5908 1cbd c5ca d5bb
00000290: 13c2 1b3b a8d4 c73c 2b8f 5e3d 2da1 00bd
000002a0: d008 92bc 3c7a 40bd 7c3b 3abc 0ae9 903d
000002b0: cd8c a93d dae1 e83c 269e 8ebc cdd5 4e3d
000002c0: 08a4 7dbd f000 6abd 61a8 4d3d e0b4 40bc
000002d0: 5bee 9ebd e8a8 8ebd 1548 5bbd 97fa ab3d
000002e0: bb18 3d3c e984 22bd 12b4 a53c 469e 3a3d
000002f0: 51ca ad3c ac7a 743c eba3 40bc 8571 a83d
00000300: 80ea 9a3d 5494 87bd f992 3c3d a50f 863d
00000310: 4625 7bbd 9c5a b5bc 8239 6abd 4cdd 8e3d
00000320: 2ebb c33d 21ab 88bc eda4 3cbd 3d3d 663d
00000330: 09d1 ccbb 2648 303c 2324 22bd f7c7 a4bc
00000340: 519e 893d 6082 db3c 7c42 2bbc e6c7 95bb
00000350: 1b54 853c c40b 9ebc 46ec 823d 1b79 5f3d
00000360: 8f92 8ebd 7d4a 3a3d 07cb 4a3d 710f 8bbd
00000370: 6cee 363b b1a8 893c 84db b4bb bb66 063c
00000380: cebd 1b3c 23ce 89bd 293f 75bd 597a a13c
00000390: 0679 683d bf4b 79bd d2a1 863d c1f7 533b
000003a0: 065e 603d baff 94bc 491f f13c 1d87 823d
000003b0: 5e88 513d 698c afbd 2c14 1dbc 241e 95bd
000003c0: bef7 3f3c c80b 63bc 7bea 033d fb9e 1fbd
000003d0: 48e2 33bb 455c b43d c940 4f3d 3076 45bc
000003e0: b334 36bc 7954 6dbd 5a48 b93d 58bd 9abb
000003f0: f975 c63c 2e71 74bd c54d a33d 9d21 8bbc
0.07154929 0.0025218152 0.009869471 -0.036461823 -0.057713877 -0.056146033 -0.06428352 0.057053164
0.015251764 0.002951642 0.032504648 0.043741502 0.0682529 0.083186425 0.091293134 -0.036009006
0.08459485 -0.11096327 0.026504237 -0.049106285 0.066461325 0.03218057 -0.07587675 0.019356936
-0.05416541 0.08991592 -0.026322328 -0.05956195 -0.059041668 0.08360961 0.02119779 0.010296554
0.056806315 -0.014144159 0.062308013 0.040779866 0.0034378176 0.08323817 -0.015088034 -0.044150468
-0.099504635 -0.076290905 -0.062183645 0.03190418 0.031113418 -0.017828995 0.015528078 0.08796744
-0.013447886 0.041657433 0.02664464 0.08954718 0.090278625 -0.074836604 -0.050951995 -0.055998847
-0.04436624 -0.080017745 -0.08322386 0.0594922 0.044768155 0.06693599 -0.004575924 0.043894056
-0.087788455 0.0049963035 0.0008629782 0.0073227375 -0.0072836005 0.05135951 -0.018460235 -0.025977386
-0.003605948 -0.012625348 -0.031691175 0.08389047 0.052393932 0.061960347 -0.042532064 0.07082215
-0.061392497 0.058553763 -0.0017297138 -0.022347653 -0.051295273 -0.0028598355 -0.0070017637 -0.0021119362
0.050729536 -0.078414 -0.0525664 -0.045651935 -0.07429421 -0.058746357 0.05945136 0.017855009
-0.077197164 -0.07328106 0.059544124 -0.10809985 0.057330254 0.056839325 -0.0651631 0.03799932
-0.040157042 -0.017382475 0.0136734955 -0.09225952 -0.054311484 0.022145309 -0.012541461 -0.07147694
-0.011693983 -0.012883764 0.022083728 0.044607077 -0.0641294 -0.0241142 0.09393384 -0.07605793
0.085528605 -0.09995228 0.06839728 0.01450929 -0.018809168 -0.022200221 0.036624435 0.0065886104
0.044695083 0.09258651 -0.062274158 -0.013198998 -0.055669647 -0.044436824 0.026518598 -0.0032123944
1.0665132e-05 -0.018507054 -0.0129714105 0.05269338 0.016303701 0.048969492 -0.040417485 0.030006861
-0.05105298 -0.0045800353 -0.027031332 -0.024863828 0.0028672551 0.049392138 0.086935215 -0.0421588
-0.08242693 -0.023214739 0.04052432 0.06951976 0.034036957 -0.005675441 0.01687276 0.06740302
-0.05389033 0.041464917 -0.0380939 -0.006524416 0.00237668 0.024393395 0.054335754 -0.03140371
-0.017826468 -0.04699157 -0.011366721 0.07075699 0.08278809 0.028428007 -0.017409395 0.050496865
-0.06192401 -0.0571298 0.050209407 -0.011761874 -0.077603064 -0.0696581 -0.05353554 0.083974056
0.011541541 -0.039677534 0.020227466 0.045561098 0.021214636 0.014921825 -0.011757831 0.08224777
0.075642586 -0.06620088 0.0460386 0.06545953 -0.061314844 -0.022137932 -0.05718375 0.06975803
0.09557186 -0.016683163 -0.046055723 0.056210745 -0.006250505 0.010759389 -0.039585244 -0.020114882
0.067196496 0.026795566 -0.010452863 -0.004570949 0.016275456 -0.01929272 0.06392722 0.054558855
-0.069615476 0.045481194 0.04951003 -0.067900546 0.0027913107 0.016804071 -0.0055193324 0.008203204
0.009505702 -0.067287706 -0.059874687 0.01971166 0.056756042 -0.060863253 0.065738335 0.0032343718
0.054777168 -0.018188346 0.029433863 0.06373427 0.05115544 -0.08571703 -0.009587329 -0.072811395
0.011716781 -0.013857789 0.03220604 -0.038969975 -0.0027448107 0.088066615 0.050598893 -0.012052104
-0.011120963 -0.057941888 0.09047003 -0.0047222786 0.024226176 -0.05967825 0.07973818 -0.016983801

bias f4 [128]
00000000: d50a cd3c f6df 66bd 070d 953d 189a c2bd
00000010: abfa 933d 1124 8abd c773 a33d 9654 76bd
00000020: 02b5 9abc 9412 36bd 9a85 b8bc 9ea8 b23d
00000030: d606 03bd 4091 a6bd 6299 653d 48d9 873d
00000040: c246 05bd 35f1 75bd 434e e1bb d685 b23c
00000050: 824b 2dbd 0d1e 0dbd e04d f3bc b30d 49bd
00000060: 6405 61bd e4b4 d73c a72b 443d 083a c83c
00000070: da07 04bd e03e 03bd de47 193d d1ca 16bd
00000080: dcb8 163c bc3f b53c a51d 8fbd 4196 f6bc
00000090: 1e40 a13d 076a c13c b022 8cbc 0c55 34bb
000000a0: 8ddf 85bd 3b7c 653d 6b50 3b3d daa6 27bd
000000b0: 14b4 eebc dad7 50bd 73f9 c5b7 0ec3 2c3d
000000c0: 1dde 2d3d 2b21 963d 3b8c 263c b1eb b33d
000000d0: 624a 443d bcf0 b1bd 1329 763b 6609 943d
000000e0: d044 333d e7b8 423d f17b ac3d e234 d0bb
000000f0: 9823 3d3d 8d07 5b3d cc5c e63c 41ce 553d
00000100: 560d b93c f764 abbd 093c 963d f17c aa3c
00000110: 95b1 8a3d 9c04 433d 2fa1 f4bb 718b a1bc
00000120: eeee ccbc 33a6 523d d132 29bd ae89 393d
00000130: 193a f73a 7751 4f3c 7a37 a53d 61c9 8bbb
00000140: 3575 bf3c 863e 88bd 8fb3 72bd f4af a439
00000150: 1e67 ff3c 6ab8 0a3d 75fc 153d 2bdb 7b3d
00000160: fb28 d0bc cb0f 24bd 5db1 223d 050c 89bc
00000170: 0773 843d b949 d63c 505f 37bc c615 9dbc
00000180: 4c45 28bd 2aca 8f3d 540e bfb9 5151 ddbb
00000190: 6ffa 363d 8a13 b9ba bf9e b6ba ab8c 813d
000001a0: cdbb a1bd eb7b 963d 8c0e d0ba 36a9 3cbd
000001b0: 2c12 86bd 5efb 71bd 9ed8 b1bc 0afa 1cbd
000001c0: a3b0 973d e243 d3ba 32fe 64bd 621f f2bb
000001d0: b7aa 5f3b 3977 d03b e9a8 803c 7266 a6bd
000001e0: b5f2 9cbd 3051 313d b07f b23d ca03 c33d
000001f0: 3f7c 48bc 0ac3 31bc 43de b9bd 71df 873d
0.02502958 -0.05636593 0.072778754 -0.09502047 0.072255455 -0.0674516 0.07981067 -0.06013926
-0.01888514 -0.04445131 -0.022524644 0.087235674 -0.03198894 -0.08133173 0.05605448 0.0663324
-0.032538183 -0.060044486 -0.0068757846 0.021792334 -0.042308338 -0.034452487 -0.02970022 -0.04908533
-0.05493678 0.026331373 0.047893193 0.024441734 -0.03223405 -0.032042384 0.037422054 -0.036814515
0.009199347 0.022125117 -0.06988076 -0.030100944 0.078735575 0.023610128 -0.017106384 -0.0027516512
-0.065367796 0.05602668 0.04573099 -0.040930606 -0.029138602 -0.050987102 -2.3600389e-05 0.042178206
0.04244815 0.07330545 0.0101652695 0.08785189 0.0479225 -0.086884946 0.0037561103 0.07228355
0.043766797 0.047539618 0.084220774 -0.0063539604 0.046176523 0.053473998 0.02812042 0.052198652
0.022589367 -0.08368867 0.073356695 0.02081153 0.06772152 0.047611818 -0.0074655036 -0.019719811
-0.025016274 0.05142803 -0.041308228 0.045297317 0.0018861919 0.0126537 0.08067222 -0.0042659496
0.023371318 -0.066525504 -0.05925327 0.00031411613 0.0311771 0.033867277 0.036617715 0.06148831
-0.025410166 -0.040054124 0.039719928 -0.016729364 0.06467252 0.0261582 -0.011192158 -0.019175421
-0.04108171 0.070209816 -0.00036441034 -0.0067540784 0.044672426 -0.0014120203 -0.0013932808 0.063256584
-0.07897148 0.07347854 -0.0015873476 -0.04605981 -0.06546435 -0.059077613 -0.021709736 -0.038324393
0.07406738 -0.0016118253 -0.055906482 -0.007388995 0.0034128854 0.0063618687 0.015705543 -0.08125009
-0.0766348 0.043290317 0.08715761 0.09522207 -0.012236654 -0.010849724 -0.09075596 0.06634415

weight f4 [128, 128]
00000000: 4563 373d 37cd 40bc 227b 3abc 59a8 da3c
00000010: 6cf8 89bd c23c aebd 9483 e43c 049a 373d
00000020: 2336 56bd d47b adbd a105 863c 094f adbc
00000030: 877a ccbc 2fe3 6abd a7d1 4e3d 8ee6 1c3d
00000040: a6c3 86bd 9428 cdbc 245c 23ba 8011 02bd
00000050: 478e 3fbb e898 9e3d 6a36 10bc c7da f93c
00000060: 777a 013d 83c5 79bd 362a 8fbc 3737 d73c
00000070: e662 1a3d 4c09 8fbd 5206 6abd fd78 d4ba
00000080: 622b 4cbd 76eb 87bc 7423 803d 36fe f6bb
00000090: c53a 233c effa 913d 5603 223d a679 693d
000000a0: a871 15bd 9639 133d 3d40 dc3c c6bc 573d
000000b0: 5278 a63d c6b2 883d 7339 aebd 9df2 c1bd
000000c0: 30e4 8d3d 7c3d d83c deba a53c 1fb2 fdbc
000000d0: 2b23 9dbd dc31 95bd b46e 7dbd 3985 28bd
000000e0: 21b0 453d ef63 adbd c2f7 a83d 4c04 913d
000000f0: 5c4b a43d 53ab 2e3c 4fed 3e3d ad25 aa3c
00000100: 67f0 88bb 9d22 dcbc 4f54 7cbd beb9 6d3d
00000110: fbe2 313d 5624 8a3d b1fd 173c 575c 633d
00000120: b9ee 56bd 0082 89bd e395 643c 9f36 753c
00000130: 0fff 5c3d 5deb 13bd 18c3 1ebd 1553 863d
00000140: 2308 82bc 8365 ccbd 475c a4bd 5a21 943b
00000150: ae48 993d 6deb 51bd cfeb 853c e760 bcbd
00000160: ec45 973d f929 2c3d e821 023b 0336 e23c
00000170: 0b75 a03d f9ff 65bb aab2 b8bd 1d4d 873d
00000180: 5b26 f93b cef7 7dbd 750a 773d 249d ccbc
00000190: 8303 483d ace7 863d 164a 203d b675 3d3c
000001a0: 1c93 b53c b825 cabc 49b1 3fbd 3811 8c3d
000001b0: 523e 0bbc 3a44 99bc d8b8 9abc b1f7 9d3b
000001c0: 6065 3b3d 08dc 4cbb b79a 0c3d fb01 47bd
000001d0: 31bc 2d3d 0a0c 2c3d 1da8 40bd 975f 52bd
000001e0: 317f b0bd 84b3 593d 7b5f 3bbc d1e9 223b
000001f0: 5346 3cbd 6153 28bc 355c 4dbd 1787 a63c
00000200: e7ef 77bd 6e1e 1fbd e307 8ebd 46f1 813d
00000210: 8f07 49bd 328b 00bd 2400 8d3c 724b 973b
00000220: 2b8c 8cbc fa43 2c3d ce2b 27bd 8c18 1a3d
00000230: da88 c33d 944b 343c 1791 8fbd f83a a53d
00000240: 1714 b93d 49fc 883d 0d87 2fbc 94e0 33bb
00000250: 8e9b ce3d 20c9 233d 82e8 f33c d449 413d
00000260: 2843 213d b1e4 39bd 7953 dd3c 63a5 963d
00000270: fa16 273d 2889 67bc f6c3 9d3d 8dfb 7f3b
00000280: fe69 0a3d ac66 ba39 7a7a 44bd 71a3 b03d
00000290: 8854 bfbd 6994 7fbd 1186 113d 7635 573d
000002a0: 71de c3bb b8d1 293d 3168 69bc 7aef 973d
000002b0: dfe7 f9bc f742 b13d a90d 7ebd 07f1 003c
000002c0: 586f a03d a477 eb3c e3bf a6bc ea4e c93d
000002d0: 0d89 cb3b 562c a1bd 6028 203d 1bf3 dbbc
000002e0: 34cb 90bd f281 c53d 7b69 e5bb 47f4 89bd
000002f0: 780d 7b3d 827f 803d 099e 0fbd 0b24 f83c
00000300: a0f5 b0bb 360b 843c 8182 2fbd 7b11 bf3d
00000310: 767d 65bd 5d96 cc3d 941d 293c bff0 463d
00000320: 1a0f 85bc e7e4 683d 632e b33d bf87 bc3b
00000330: 8acd 97bd 0a8a 9f3d 37e6 99bd 86d2 8f3d
00000340: 545b d3bc 018e 8f3c e2c7 833d 8883 e73c
00000350: 924b 2bbd f805 3dbb 3b9e d93c 32be b63b
00000360: b183 913d 492f 9fbd 20c1 743d 0bc3 f23a
00000370: 1323 cabc 0eef 863d 9368 c63d eed5 8cbd
00000380: c34b a239 faf1 74bc ee7a 253d 3755 edbb
00000390: 6f2b a23d cfa3 263d 3765 4e3d c39a b83d
000003a0: 5bf1 753d ec8b 41bd 95b6 bfbc 08cf 07bc
000003b0: b99d 9abb 455e 7c3d 45f1 8c3d bcd0 3cbd
000003c0: 1005 0fbd 07a7 383d 2ace 76bd 987e 30bd
000003d0: 55d5 0a3d 9aca 8cbc f3f6 8e3d 6b36 a33c
000003e0: b8b3 713c 10f3 83bd f31e 663d 10e2 a03d
000003f0: 8aa1 453d a6ed 0abc 9054 123d 8fb4 9ebd
0.044772405 -0.011767677 -0.011381896 0.026691603 -0.06736836 -0.085076824 0.027894773 0.044824615
-0.052297723 -0.08470884 0.016360106 -0.021155851 -0.02496077 -0.057345565 0.05049291 0.03830581
-0.06580286 -0.025043763 -0.00062316866 -0.03175497 -0.002922909 0.07744008 -0.008802036 0.030499829
0.031610932 -0.060979377 -0.017476182 0.026271446 0.037691973 -0.06984195 -0.057134934 -0.0016210374
-0.04984606 -0.016591769 0.06256762 -0.0075376285 0.009962742 0.0712794 0.039553963 0.05700078
-0.036485344 0.03594359 0.0268861 0.052670263 0.08128418 0.06674723 -0.08507051 -0.09470103
0.06928289 0.026396506 0.020230707 -0.030968724 -0.076727234 -0.072849005 -0.061873153 -0.041142676
0.048263673 -0.084663264 0.08250381 0.07080898 0.08022186 0.010660964 0.046613034 0.020769918
-0.004179049 -0.026871974 -0.06160384 0.058038466 0.043429356 0.06745212 0.009276793 0.055507984
-0.052473757 -0.06714249 0.013951751 0.014966636 0.05395418 -0.03611313 -0.038760275 0.065588154
-0.01587302 -0.09980299 -0.08025413 0.0045205774 0.07484566 -0.05124991 0.016347794 -0.0919817
0.073863834 0.042032216 0.0019856635 0.027613645 0.07834824 -0.0035095199 -0.090184525 0.06606505
0.0076034493 -0.062003903 0.060312707 -0.024977274 0.048831474 0.06587157 0.039133154 0.011563709
0.022164874 -0.024676189 -0.04679993 0.06839222 -0.008498745 -0.01870929 -0.018886968 0.004820787
0.045750976 -0.0031259079 0.034327235 -0.048585873 0.0424158 0.04200367 -0.047035325 -0.051360693
-0.0861801 0.053149715 -0.011436339 0.0024858604 -0.045965504 -0.010273785 -0.050136764 0.020328088
-0.060531523 -0.03884738 -0.06935098 0.063448474 -0.049079474 -0.031382747 0.017211981 0.004617148
-0.017156681 0.042057015 -0.04081326 0.037621066 0.09547587 0.011004347 -0.070100956 0.08067888
0.09037035 0.066887446 -0.010713351 -0.0027447091 0.100882635 0.03998673 0.029773954 0.04718955
0.039370686 -0.045384113 0.027017342 0.07355764 0.040793397 -0.014131822 0.07703392 0.0039059848
0.03379249 0.0003555318 -0.047968365 0.08624924 -0.09342295 -0.062397394 0.035528246 0.05254122
-0.005977445 0.04145977 -0.014246033 0.074187234 -0.030506073 0.08655351 -0.062024746 0.007869965
0.07833737 0.028743573 -0.02035517 0.09829505 0.006211406 -0.078697845 0.039101005 -0.02684932
-0.07070008 0.09643926 -0.0070010996 -0.06736045 0.06129214 0.0627432 -0.035062823 0.030290624
-0.0054003745 0.016118627 -0.042849068 0.09329506 -0.056027852 0.09989617 0.010321993 0.048569437
-0.016242553 0.056858923 0.08749082 0.005753487 -0.0741225 0.07790001 -0.07514613 0.07022576
-0.025800385 0.017523767 0.06434609 0.028260961 -0.041820116 -0.002884267 0.026564708 0.0055768723
0.07105196 -0.07772691 0.05975449 0.0018521262 -0.024674928 0.06588565 0.09687915 -0.06876741
0.00030955495 -0.01495027 0.040400438 -0.0072428244 0.079184406 0.040683564 0.050389495 0.090138935
0.060044628 -0.04725258 -0.023402492 -0.008289106 -0.004718509 0.06161334 0.06881956 -0.046097502
-0.034916937 0.045081165 -0.060255207 -0.04308948 0.033894856 -0.017186452 0.069806956 0.01992341
0.014752321 -0.06442845 0.05618186 0.07855618 0.04824976 -0.008479511 0.035725176 -0.077492826

bias f4 [128]
00000000: 300c 74bc a514 5c3d e24f 34bd 3813 023c
00000010: d7d8 543d a84c a5bc 32de 453d 51a2 073a
00000020: 3e09 913d 3a2f fc3a 6b25 aabd 54a8 56bd
00000030: 3eb1 53bc d5d1 03bd 2afa 5d3d 7ada 47bd
00000040: fae4 b13d b00e d1bb 487e 59bd 8a4d dfbb
00000050: ed54 df3c 093e c9bc 7956 aabc c94c 723c
00000060: 3693 733d 3ec5 a23d d0b9 02bd e8db 2dbd
00000070: cd8a e2bb 5bf6 953d 8ceb 243b 0bc1 f93a
00000080: 55a8 83bd 7000 973d 988d 32bd 0b43 02bd
00000090: 1b86 4c3d b6a7 0dbd 0834 84bd d715 b93d
000000a0: dd70 22bb cbf8 4ebd 1c8a 803c e047 7abc
000000b0: 85c0 f7bc 0144 3dbd 11f8 3f3c 293d 13bd
000000c0: 5b5a 0ebd 4749 213d 9988 13bd d11f 00bd
000000d0: 80f2 f13b 85b1 89bd 4ded 993c 8b49 853d
000000e0: 0081 623d 150d ecbc 44d1 57bd 70bc 02bc
000000f0: c134 933d 449a 3abd f532 2bbc b358 25bd
00000100: ac0c 953d e335 a73c f3ba 89bc 8477 d0bc
00000110: fdfc 4c3d 1233 43bd 2c9b d73b 5455 8f3d
00000120: 3a70 473c 22b2 893d 96cd 7b3c 2ea0 4c3d
00000130: f696 613d 9375 353d 9e4f 7abd 04a7 5f3c
00000140: 0b62 a4bd 6272 6d3d aab0 22bd 8541 03bd
00000150: 416f 96bd 7b30 983d f8ce bd3d ce5d 5d3c
00000160: 50d9 453c 6136 df3a 8169 3a3d 5226 743d
00000170: 9390 0cbd bb41 3a3c a059 acbc 28c2 873d
00000180: 002f bb3c 8ada 3abd 4135 5ebd 0ee7 363d
00000190: 0055 c53c 3a7d d2bc 7926 11bc 60c2 01bd
000001a0: c89f 4cbd 4864 a13c f30d 8b3d 2a6b 40bc
000001b0: 4958 b03c 9732 3abd f5af 253d 4efa af3c
000001c0: 66aa e23c 9d5a 75bc 90ee 9f3d 2268 87bd
000001d0: 5b64 f33c 6b31 9bbd 97f9 863d ca1f b63c
000001e0: a4f6 3aba d72e aa3d 5a9a 5cbd 9bdb 9c3d
000001f0: 9f65 6d3c 54b7 363d 988a 203d ad27 0cbd
-0.014895484 0.053730626 -0.044021495 0.007939152 0.051964607 -0.020178154 0.048307605 0.00051740283
0.07081841 0.0019240149 -0.08307918 -0.052406624 -0.012920676 -0.032182533 0.054193653 -0.04879234
0.08686252 -0.0063799247 -0.053098947 -0.0068146633 0.027262175 -0.024565713 -0.020793187 0.014788815
0.059466563 0.07947777 -0.031915486 -0.042446047 -0.006913519 0.07322379 0.002516481 0.0019054724
-0.06428591 0.0737313 -0.043592066 -0.03180222 0.04993258 -0.03458377 -0.06455237 0.09037369
-0.002478651 -0.050530236 0.015690856 -0.015275925 -0.030243168 -0.04620743 0.0117168585 -0.035947
-0.03475414 0.039376523 -0.03601894 -0.031280342 0.0073836446 -0.06723312 0.018789912 0.06508168
0.055298805 -0.028814832 -0.052689806 -0.007979497 0.071877964 -0.045557275 -0.010449161 -0.040367793
0.072778076 0.020411437 -0.016812777 -0.025447614 0.050045956 -0.047656126 0.006579777 0.06998697
0.012172753 0.06723429 0.01536884 0.049957447 0.05507561 0.04430158 -0.061111085 0.0136506595
-0.08026513 0.057970412 -0.03971926 -0.032044906 -0.07345439 0.07431122 0.09267992 0.013511134
0.012075737 0.0017029756 0.045510773 0.059606858 -0.034317564 0.01136821 -0.02103883 0.06628829
0.02284956 -0.04561857 -0.054250006 0.044653945 0.024088383 -0.025694478 -0.00885927 -0.03167951
-0.049957067 0.019701138 0.0678977 -0.0117443 0.021526473 -0.045458402 0.04045101 0.02148166
0.027669143 -0.014975217 0.07809174 -0.06611659 0.02971094 -0.07577785 0.06590574 0.022231955
-0.0007132089 0.08309715 -0.05385814 0.07659074 0.01448956 0.04460843 0.039194673 -0.034217525
