agModels-predictClass/models/NeuralNetTorch/net.params (torch, 234610 bytes, 17 tensors)

weight f4 [8, 5]
00000000: 892f 95bf a4a7 92bf b980 5ebe d484 e2be
00000010: fbd8 553f 3352 3b3f a79b 82be 7a61 07c0
00000020: 3d8f b23e 0595 a8bf f89c c03e ee30 b73e
00000030: ab36 df3d 635c 9f3f 54eb 8e3f f7e7 7bbe
00000040: 5e71 b0bf 825b dabf 5e47 0d3f 5011 4d3f
00000050: fae7 1d3f 8f9e c5bf 9a46 bcbe ca24 f33f
00000060: 1a86 64be 2454 3abf 31dc 233f 7248 8c3e
00000070: 9b80 31be df26 2bbf 8737 623f eef2 e63e
00000080: 5701 a23f cbb9 f73c 4ce1 95bf 7268 ee27
00000090: efb9 b7be 499c 23be a77d b4bf 8785 c43f
-1.1655132 -1.145741 -0.21728791 -0.44241965 0.8353421 0.731723 -0.25509378 -2.1153245
0.34874907 -1.3170477 0.37619758 0.35779518 0.10899099 1.2450069 1.1165566 -0.24600206
-1.3784597 -1.7059176 0.5518702 0.8010454 0.61682093 -1.5439013 -0.36772615 1.8995602
-0.2231678 -0.7278464 0.6400786 0.2739902 -0.17334215 -0.6685619 0.8836598 0.45107216
1.2656659 0.03023996 -1.170938 6.617151e-15 -0.35884044 -0.15977587 -1.4100846 1.5353249

weight f4 [16, 7]
00000000: 05da 903e 8d6f e4be c4bd 21bf d30a 1fbf
00000010: 9aca 063f 907b ce3f 0943 eb3e 2610 f8be
00000020: 65ef a5bf 5574 c33d 4314 22be f6e3 1ebf
00000030: d63c b5bf 2279 9dbe 0a63 ea3e 9722 a93f
00000040: fa84 c13f d767 0740 5604 dd3f 4a10 1940
00000050: 2a46 91bf 5264 abbe 5eea 8ebf 911d 8bbd
00000060: 56d6 a13e ddb5 3dbf 94da ccbf 3d8b 063d
00000070: c69c 53bf 2b66 053e 92f7 293f 02da 333f
00000080: 83f7 4d3d ca9a 1bbf 6daa 9d3f bd07 cc3e
00000090: dc96 f83f e89f 4e3f 0973 7b3b 79d9 d8be
000000a0: e821 c3bf 2469 d6be e42c 813f ed55 d13f
000000b0: d11f cdbe 7443 aabf 2319 603d ffeb f13e
000000c0: b31a 823d 7dc6 943f 564b 963e 6936 c73e
000000d0: 323e 57bf 4fea acbf e568 3dbf 2e6a aebf
000000e0: 9477 0f3e 247d 9cbe 826e b5be a750 a43e
000000f0: bcf4 5e3f 94a9 80be 97b5 96be eb1e 9bbf
00000100: 8917 33bf 586c 863f 13b3 18bf c785 a2bf
00000110: 9c55 de3d 5e99 2abf 3305 213f 71e8 34bf
00000120: 959a ab3f 9822 1f3f 6e65 e43e ad42 7bbf
00000130: 6a4e 103e 7b43 053e d882 43bf 296f 6e3e
00000140: d3fa 923f 6c0a fdbd f9d3 363f 1ec8 efbf
00000150: a95f 51bd ba22 ac3f 23a4 2940 d3c3 753f
00000160: de02 c23e 0a70 8a3f 44f5 8fbf efc2 633d
00000170: ce83 2d40 19b7 9a3f 8fd8 fe3e 9a41 fe3e
00000180: 5ea9 4dbf ab4c b9bf dd60 d23f 130c 3c3e
00000190: b0a8 cebf 773b f0be 5495 25be b260 9cbe
000001a0: 4ede 0c3f 5f8e 543f 1160 c43e afdb 4c3b
000001b0: 4f56 323f 1c30 7ab3 47cf 523f 3cd6 1cbf
0.28291336 -0.44616356 -0.63180184 -0.6212589 0.52652895 1.6131458 0.4594958 -0.4844982
-1.2963682 0.09543673 -0.15828042 -0.6206659 -1.4159191 -0.3075648 0.45778686 1.3213681
1.5118706 2.115713 1.7266948 2.3916192 -1.1349537 -0.33474976 -1.1165273 -0.06792749
0.31608838 -0.74105626 -1.6004205 0.03284763 -0.8266109 0.13027255 0.6639339 0.7025453
0.050284874 -0.60783064 1.2317635 0.39849654 1.9421039 0.8071275 0.0038368127 -0.42353418
-1.5244722 -0.4187709 1.0091825 1.6354347 -0.40063336 -1.3301835 0.054711472 0.47250363
0.06352749 1.1623074 0.29354352 0.389087 -0.8407928 -1.3509005 -0.7398818 -1.3626153
0.14010459 -0.30564225 -0.35435873 0.32092783 0.87092185 -0.25129378 -0.29435417 -1.211881
-0.69957787 1.0501814 -0.59648246 -1.2697076 0.108561724 -0.6664027 0.6289856 -0.7066718
1.340655 0.6216216 0.44608635 -0.98148614 0.14092413 0.13014023 -0.76371527 0.23284592
1.1482795 -0.123555034 0.71417195 -1.8732946 -0.05111662 1.3448098 2.650643 0.9600193
0.37892812 1.0815442 -1.1246724 0.055605825 2.7111697 1.2087127 0.49774596 0.49659425
-0.8033656 -1.4476522 1.643581 0.18363981 -1.6145229 -0.46920368 -0.16170245 -0.30542523
0.5502671 0.8302974 0.38354543 0.0031258871 0.69662946 -5.8251416e-08 0.8234753 -0.61264396

weight f4 [8, 5]
00000000: dddc 8ebe 8a96 5abe c39b f63f 6b34 343f
00000010: 6c37 14c0 7ffe 9bbf db8e 193e eb55 95bf
00000020: cf7c 013e cad4 923f 650e a9bf d1a0 123f
00000030: b024 4cbf 5127 683f 601f a5be 7255 b1bf
00000040: aa2c 873f 5cdc c3bf 7925 183f e1fa d73d
00000050: 6e3b 313e f93b 46bf e412 283f af89 fcbf
00000060: b489 8e3f 88ed 8e3d 927e 793f a746 563f
00000070: 633f a4bf 1495 7d3f 1bfd ecbe d8ae 9ebf
00000080: a444 733f 78d2 9f3f 6c55 31bf 6e11 cf3e
00000090: 1d34 123e 4607 25b7 a2ca 64bf b8c1 6dbc
-0.2790288 -0.21346489 1.9266285 0.70392483 -2.3158827 -1.2187041 0.14995901 -1.1666845
0.12645267 1.1471188 -1.3207518 0.57276636 -0.7974348 0.9068499 -0.322505 -1.3854201
1.0560505 -1.5301623 0.5943218 0.10545898 0.17307827 -0.7743526 0.65653825 -1.9729518
1.1135774 0.06978899 0.97458756 0.83701557 -1.2831844 0.990556 -0.46286854 -1.2397108
0.9502661 1.2486105 -0.6927097 0.40442985 0.14277692 -9.83646e-06 -0.89371693 -0.014511518

weight f4 [15, 7]
00000000: 6f1b acbe b93a d23f 52af 783e e6b9 be3e
00000010: 1d7a 3cbe 1cfa 1d3f 8807 69be 6130 adbf
00000020: c32b 13be 272c 05bf 0a40 05bf bd4c 5d3f
00000030: 3dfb 62bf bbf7 533f 0cd5 983f 65e4 e4bf
00000040: 5186 c1bf 55ce debf fb46 c83d 1f58 8abf
00000050: e544 b53f 1933 98bd d6ef 0a3f 8ba2 29be
00000060: 0060 f2bc 4ef1 873f 1848 703f b585 fdbe
00000070: 083a 6abf 2ebb 263e 4c3d f53f 9a95 a63e
00000080: eb7d cbbc 7c73 4abf 55e6 e0be 568a c3be
00000090: 246c 123f abd3 93bf a4aa 45be c2f5 3abe
000000a0: e38b 93bd 57cd b23f d718 153f d3a0 08bf
000000b0: 39ca afbe fdf8 abbf 0225 dd3f df33 0440
000000c0: 0c72 86be 88c5 463f 34b4 133f cdfb 5d3e
000000d0: 202e 06c0 c148 113f 0ca4 13bf f162 59bf
000000e0: 4d05 9b3d aa3b a13f 23b0 b63e 956b 05be
000000f0: 18bb 9cbf f36d c6be 69ea 773f 98a4 88bf
00000100: 610c 143f b2be 3d3f d331 0bbe d6b3 3fbf
00000110: db0c ccbd 9454 82bf 5e6d 003e bc76 e4be
00000120: 14f0 5bbf 4bee 673f c549 30bf 8a52 a33f
00000130: f52b bb3f 36d3 29bf 97f0 7e3f 15f2 cebe
00000140: e4a4 1bbf 0404 76be ca52 fabe d821 4d3f
00000150: b43c b03c 270f 8bbf a851 85bd 0e9c 8cbf
00000160: 6866 94bf a67c 533f d09a d73e dd71 9e3e
00000170: 4767 2ec0 c434 58bf 134c 013f 6ff5 8b3e
00000180: 0017 223f 6d64 c2bb 34f5 2bbd bf2d ddbd
00000190: eacc 0f40 e6bb bc3f b672 25be 1f0a acbf
000001a0: 3a09 e33f
-0.3361468 1.6424171 0.2428563 0.37251204 -0.18405958 0.6170976 -0.22756779 -1.3530389
-0.14372163 -0.52020496 -0.5205084 0.8644522 -0.8866461 0.8279988 1.1940017 -1.78822
-1.5119115 -1.7406718 0.097791635 -1.0808142 1.416165 -0.07431621 0.5427221 -0.16565911
-0.029586792 1.0620515 0.93860006 -0.49516073 -0.914948 0.16282341 1.9159331 0.32536012
-0.024840316 -0.79082465 -0.4392573 -0.3819148 0.5719626 -1.1548971 -0.19303375 -0.18257812
-0.07204416 1.3968915 0.5824103 -0.533704 -0.3433397 -1.343536 1.7276919 2.065666
-0.26258886 0.7764516 0.57696843 0.21678086 -2.0965652 0.5675164 -0.5767219 -0.849166
0.075693704 1.2596333 0.35681257 -0.1302932 -1.2244596 -0.3875576 0.96842057 -1.067523
0.5783139 0.741191 -0.13593225 -0.7488378 -0.099633895 -1.0182061 0.1254172 -0.44621837
-0.85913205 0.9059798 -0.68862563 1.2759564 1.462279 -0.6633791 0.9958586 -0.4041907
-0.6079848 -0.2402497 -0.48891288 0.80129766 0.02151332 -1.0863999 -0.06509715 -1.0985124
-1.1593752 0.82612073 0.421103 0.30946246 -2.7250535 -0.84455514 0.50506705 0.27335688
0.63316345 -0.005932382 -0.04198189 -0.10799741 2.246882 1.4744842 -0.1615704 -1.3440589
1.7737191

weight f4 [7, 4]
00000000: 4b4a 57bf a8e3 b2bf be3f c3be 7dd9 aabe
00000010: 1837 86bd baf5 063f 48f6 cdbf 251f 0f3f
00000020: 18ab 12c0 d42e 5bbf bc8a d5bf 3d01 1a3f
00000030: 7343 02bf 3117 a13c 60bd 2e3f a3c5 83bf
00000040: 1ff0 0f40 ba2a f33d 82e4 4c3f edc6 89bf
00000050: 0515 073f db5c 70be e127 70be 2c10 fcbf
00000060: 361f 48a5 7d6a e6bf 0a89 e1bf 5845 fc3f
-0.8409774 -1.3975725 -0.3813457 -0.33369055 -0.06553477 0.527187 -1.6090784 0.559069
-2.2916927 -0.8561833 -1.6682963 0.6015814 -0.5088417 0.019664379 0.68257713 -1.0294689
2.2490308 0.11873384 0.80036175 -1.0763832 0.5276645 -0.23472922 -0.23452713 -1.9692435
-1.735781e-16 -1.8001248 -1.7619946 1.9708662

weight f4 [6, 4]
00000000: 1cf6 c3bf 7741 9e3e 3eee 383f 853f ab3e
00000010: 1168 3abf d291 c73c ac4e f23f 2e4d 20bf
00000020: 6b2d f33e c90e 25bf 0b9c 04be 005f 2a3d
00000030: 6b75 7f3f 2aa1 8cbf 7f2b df3f 7ea4 7abe
00000040: 2afe 8e3f 9cd9 95bd 8495 63bf ef6a 76bf
00000050: 839a 033e 8921 023f 69d1 d63f adcc 823f
-1.5309482 0.3090932 0.7223853 0.334469 -0.7281504 0.024361525 1.8930259 -0.62617767
0.4749559 -0.64475685 -0.1295015 0.041594505 0.9978854 -1.0986683 1.7435149 -0.24476811
1.1171315 -0.07316896 -0.8890002 -0.9625692 0.1285191 0.5083242 1.6782657 1.0218712

weight f4 [17, 7]
00000000: b321 933f 0ba3 c73c 5a77 b83f 9bf4 1140
00000010: 5038 9c3f 36f6 02bf 408a df3e 807c b23f
00000020: 924d 833f 5265 09bf 5498 cd3e d413 873e
00000030: 7359 1a3e 8547 a33e 67d4 42bf 4c2b 3c3e
00000040: 9bd7 783d 7ca4 d23e 9160 a13f ff91 9cbf
00000050: ca1c 9dba 78ef e43f 8c84 8dbf 7c1e 5a40
00000060: a0f2 0fc0 4c8f 443f c8a8 41bf a6c2 2abe
00000070: abf7 aabe 0cbe a93f 77bb ae3f 8c33 4a3e
00000080: a2af f5be feae 82be cda3 e13e de2e ba3e
00000090: 460c ccbf f296 0cbf aa0f 133f 8b1e ca3e
000000a0: bde6 353f 52d7 a6bf 4a83 8dbc b382 b6bf
000000b0: 2bde 193f c374 91bf 86de de3c ed7e 653e
000000c0: ad0d 9b3f 46cc 573e c02b 6e3e d75d 12bf
000000d0: d972 d2be 276b 9dbe a540 cabf 3022 8c3c
000000e0: bc7c 91bf d32c 33bf d1a4 d4bf c060 4c3b
000000f0: 7962 2c3f 5dbf 813e 20b8 35bf 42d7 8ebf
00000100: c619 9d3e 096f 723c 1444 9a3e 16ee c53e
00000110: 7966 903d d92b a3bf 12f8 3bbf f7b6 33be
00000120: aaf9 e7be da27 10c0 7385 81bf 91ee 55be
00000130: 4a69 383f 1d9c 00c0 b6f5 1cc0 e0d7 573e
00000140: 2c9e b6bf 2304 793e 796d e0bf 17fd 00bf
00000150: 1fb6 1bbf 3a6b 22bf 5f86 7c3f 1add 563e
00000160: 500a dfbe d531 64bf 0da3 0c3f 1263 4bbf
00000170: 4876 123f a84f 9fbf d9b2 933f a693 433f
00000180: da62 173f 4d93 e73f 647c 6cbf f41d 49bf
00000190: 3a1a c13e c546 cbbf ab09 1ec0 bfeb 2cbf
000001a0: cd91 16c0 2f79 cc3d 8c38 52be 838e 4840
000001b0: bba9 273e 8208 2cbf d36b d239 2878 073f
000001c0: 3a90 e63f e68c 99bd 53e9 98b6 622c f23d
000001d0: b835 e63e b196 813f 2cb2 6fbf
1.1494659 0.024369737 1.4411423 2.2805545 1.2204685 -0.5115694 0.43660164 1.3944244
1.0258048 -0.5367023 0.4015528 0.26382315 0.15073185 0.31890503 -0.7610535 0.18375891
0.060752492 0.41141117 1.2607595 -1.2232054 -0.0011986729 1.788558 -1.1056075 3.4081106
-2.2491837 0.76781154 -0.75648165 -0.16675815 -0.3339208 1.3261123 1.365096 0.19746226
-0.4798556 -0.25524133 0.44070283 0.36363882 -1.5941246 -0.54917824 0.57445776 0.39476427
0.71055204 -1.303446 -0.017274518 -1.4258636 0.60104626 -1.1363758 0.027205717 0.224117
1.2113549 0.21074018 0.23258877 -0.5717444 -0.41103247 -0.30745813 -1.5800978 0.017106146
-1.1366191 -0.6999027 -1.6612798 0.0031185597 0.6733776 0.2534131 -0.7098408 -1.1159441
0.30683726 0.014796981 0.30130064 0.38658208 0.07050795 -1.2747756 -0.734254 -0.17550264
-0.45307666 -2.2524323 -1.011885 -0.20891787 0.7203566 -2.0095284 -2.452497 0.21078444
-1.426702 0.24317984 -1.7533408 -0.50386184 -0.6082477 -0.63444865 0.98642534 0.20982781
-0.43562555 -0.8913854 0.54936296 -0.79448044 0.5721173 -1.2446184 1.1538955 0.7639717
0.5913521 1.8091828 -0.92377305 -0.7856133 0.37715322 -1.5880972 -2.46934 -0.6754722
-2.352649 0.099840514 -0.20529383 3.1336982 0.16373341 -0.6720048 0.00040134657 0.5291772
1.8012764 -0.07497577 -4.5571155e-06 0.118248716 0.4496286 1.0124112 -0.93631244

weight f4 [128, 46]
00000000: 26c3 e5bd 9e46 1a3e 8474 9bbb 1e26 163c
00000010: bd4e d83d 6cdb 863d 5700 113e 36aa e03d
00000020: 79ae 1ebd d63b b5bd fd45 073d e304 033e
00000030: 63c7 0ebd 9d01 e0bd b504 aa3d 876b 313e
00000040: 8c54 9ebb fa15 c5bd 0420 08be 92e2 ed3c
00000050: c371 2abd 5a3f a7bd 8f3f 6f3b 6cfa a13d
00000060: f7da c13d 412d dc3d 0d08 c8bc 517b 12be
00000070: 8b6e 13be b814 0d3e 12e2 a63d 2ae3 333d
00000080: 8879 1abe 5d02 ef3d 2ada 0d3e 17ec 163e
00000090: 7572 d6bd c0a6 8fbd ee14 f5bd 3f4e ff3d
000000a0: ee86 a5bd 0aeb 8cbd f869 753d 8bcf a3bd
000000b0: 33d5 6dbd cb65 0a3c ce39 143b 1ffc 22bd
000000c0: 77b2 223e ccf0 44bd 29c0 003d 15d5 2e3e
000000d0: 885c 9b3d 660f 46bc c74c 493e 9d92 ae3d
000000e0: aba3 b0bd 3f67 733d 63e0 8f3d dac7 cbbd
000000f0: 17ce 8fbb e8ee 81bd 9ec5 2a3e 2b25 7c3c
00000100: 12bb 23be b2b0 abbc 72e6 2a3d 3f19 2b3d
00000110: dab8 4e3d bc7b ca3c c3dd e53d 75a1 bbbd
00000120: ef8f a1bd 4b38 11be 2a47 05be eac8 a93d
00000130: 8ebd 90bd fa3b a93c 690f 9a3c 5637 78bc
00000140: e3b2 ddbd 233c 2e3e 4bc0 debd 1630 b03d
00000150: f055 0fbe 8aca 17bd 737a 5f3d d0d3 97bd
00000160: 1718 e83d 9ac3 5abd 949a c6bd f0be 11bd
00000170: 3fc8 eb3d 1750 e63d aa57 4cbd 54ed d53d
00000180: e375 b4bc be3f a7bc 7301 e73d 26a3 bfbd
00000190: ae05 943d 7af1 453e b128 36bd d0ac a13d
000001a0: 8fae 12bd 6a4d f13d ca8d 10be 0a32 98bc
000001b0: e3d6 06bd c755 493d fd0b 593d e642 db3d
000001c0: 631d 283c 7781 e9bc bb86 a03d 8c56 71bc
000001d0: acdd 2d3e 27d2 d4bd cd5c febc ebef ec3a
000001e0: ab1e d23d e8cf ec3d 8c4f 61bc 0beb 03be
000001f0: ba70 843d b421 083d c930 7f3d e19a a6bd
00000200: 073c b43d fece f43d 5619 a83c d6e5 46be
00000210: 56d8 ab3d 72f6 c1bd 9249 803b 9f2c fcbc
00000220: aa01 63bd d5b7 803d de98 2abe 02fd 3e3d
00000230: aaee 0fbe cb22 d4bc b812 b93c 4d9d e63d
00000240: 9a6e 79bd b98b cc3d bf3b d23c d6e8 1ebd
00000250: d7a3 3fbe 049d 55be 7eee 123e f04a 46bd
00000260: 6891 63ba aa06 3c3d a2eb da3d 2aab 003e
00000270: 5150 f13d 2117 f7bd 0f4a 863c 412f d0bd
00000280: 166c 6fbd ab4a 173d 9393 003e 1c9d e3bd
00000290: 75df c13d 7450 94bd 527e 0cbc 20e8 0d3e
000002a0: 4226 56bd 0814 8939 0677 d6bd f7ac ed3d
000002b0: 8817 66bc 1e10 d1bd 0928 a53c b12f ddbd
000002c0: bde6 f4bd f44e b6bc 6b6f da3d 1431 22bd
000002d0: 0cd7 573d 67a0 103e 4bff d63d e8a7 8cbd
000002e0: 11d9 ac3c a3e0 1ebb 2ba2 2dbe f586 2e3d
000002f0: b982 0d3e 4fa9 b43d fedc c53c 13a6 6e3d
00000300: 38d2 9abd 9510 e73d 95e0 7fbd acde b8bd
00000310: 46ce 8c3d 01fa d23d b8a7 0ebe 5f98 243e
00000320: c5b0 aa3d 146f acbd 863b 27bd dbb0 003e
00000330: 4af1 06be 650c 30bd c353 f63c 76d0 f3bd
00000340: 640b 813d e2b5 a73d 7dec a73d 91e5 b5bd
00000350: 5c23 103e a485 d6bd 66a6 203e e3c7 2fbe
00000360: 9c22 16be babd d53d 4263 12bc 458c 7d3c
00000370: 5d92 04be bf46 94bd b046 1dbd 2e92 0ebe
00000380: f31f 9c3a 7a97 053d cc56 d7bb b060 523d
00000390: cf03 183e bff6 3b3d 17e3 8bbd a3d1 76bd
000003a0: da6e adbd 0fa8 02be 0798 a3bc a10e 86bc
000003b0: 648d 753d 463f 8dbd e444 f13d 04e8 bebd
000003c0: 178e b2b9 1455 203e 9674 0b3e ee3e dbbd
000003d0: 0edf ac3c 5945 613c 2306 92bd 37b3 34bd
000003e0: cef3 2f3d ffa5 bfbd 1f2d 683d b994 a03d
000003f0: 37f5 66bd 0519 b83d ae8a b13b 1135 763d
-0.11218862 0.15066001 -0.0047441144 0.009164361 0.10561893 0.0658482 0.14160286 0.10969965
-0.03874061 -0.088493034 0.03302573 0.12794833 -0.03485812 -0.10937808 0.08301679 0.17326175
-0.004831856 -0.09623332 -0.13293463 0.029038701 -0.041612398 -0.0816638 0.003650639 0.07909092
0.09465592 0.10750819 -0.024417901 -0.14304854 -0.14397638 0.13777435 0.08148588 0.043917812
-0.15085423 0.11670373 0.13852754 0.14738499 -0.1047105 -0.07014227 -0.11966883 0.12466096
-0.080823764 -0.06880768 0.059915513 -0.0799857 -0.05806465 0.008447121 0.0022617462 -0.039791223
0.15888391 -0.048081204 0.03143326 0.17073472 0.07586008 -0.012088632 0.19658194 0.08524058
-0.08624967 0.059424635 0.0702522 -0.09950228 -0.0043885815 -0.06344396 0.16676947 0.015389721
-0.1598933 -0.020958278 0.041723676 0.041772123 0.050469257 0.024717204 0.11223938 -0.09161655
-0.07888781 -0.1418163 -0.13015428 0.082902744 -0.07067405 0.020658482 0.018806176 -0.015149912
-0.108251356 0.17015128 -0.10876521 0.08602922 -0.13997626 -0.03705839 0.054560136 -0.07413447
0.1133272 -0.053409196 -0.09697452 -0.035582483 0.11512803 0.11245745 -0.04988829 0.10445657
-0.022028869 -0.020416137 0.11279573 -0.0935729 0.07227646 0.19330397 -0.0444724 0.078942895
-0.035811003 0.11782344 -0.14116588 -0.018578548 -0.032919776 0.04915407 0.05298995 0.10706119
0.010260913 -0.028504116 0.07838198 -0.014730107 0.16979092 -0.10391646 -0.03105011 0.0018076872
0.10259756 0.115630925 -0.013751876 -0.1288263 0.064668134 0.033235267 0.062302385 -0.081350096
0.08800512 0.11953543 0.020519894 -0.19423613 0.08390872 -0.09470834 0.0039150203 -0.030782996
-0.05542151 0.06285063 -0.16659877 0.046628006 -0.14055887 -0.025895497 0.022591934 0.112604715
-0.060896493 0.099875875 0.025663255 -0.03879627 -0.18714844 -0.20860678 0.1434879 -0.04841131
-0.000868103 0.045904793 0.10689475 0.12565294 0.11782897 -0.12064958 0.016392736 -0.10165263
-0.05845269 0.036936443 0.12556295 -0.111139506 0.09466449 -0.07241908 -0.008575039 0.1385808
-0.05228258 0.000261456 -0.10471921 0.11605256 -0.014043696 -0.10208152 0.020160692 -0.10800112
-0.11958072 -0.022254445 0.106657825 -0.039597586 0.05269532 0.14123689 0.10497912 -0.06867963
0.0210996 -0.002424278 -0.16956393 0.042609174 0.13819398 0.088213556 0.024153229 0.05826385
-0.07559627 0.1128246 -0.062470037 -0.09026846 0.06875281 0.10301591 -0.13931167 0.1607375
0.08334497 -0.08419624 -0.04082825 0.12567465 -0.13177982 -0.04298057 0.030069238 -0.11904995
0.06301001 0.08188988 0.081994034 -0.08881677 0.14075989 -0.10474709 0.15688476 -0.17166094
-0.1466164 0.10436578 -0.008934798 0.015475337 -0.12946458 -0.07240056 -0.03839749 -0.1392295
0.0011911377 0.032615162 -0.0065716263 0.05136174 0.14845203 0.045889612 -0.06830423 -0.06025852
-0.08468409 -0.12759422 -0.019969953 -0.016364397 0.059949294 -0.06896834 0.11780718 -0.09321597
-0.0003405667 0.15657455 0.13618693 -0.10705362 0.021102455 0.013749444 -0.07130077 -0.044116225
0.04295712 -0.09357833 0.056683656 0.078408666 -0.0563862 0.08989147 0.0054181432 0.0601092

bias f4 [128]
00000000: ec6e efbd 8df5 043e 0314 0e3e dd49 a3bd
00000010: f73d 343d 9a5f 2bbd 96ec a73d f64b b2bd
00000020: 95d1 e03d 3d69 153e c242 b93d 001d c0bc
00000030: 6de9 a43c 0a2b 853d c3e5 b0bd d493 84bd
00000040: 0853 08be dd3b ef3d 63d6 8bbd 3ffb f03d
00000050: f5e0 3bbc 8817 82bd 41b0 9e3d 06c0 1abc
00000060: dd03 cbbd 0362 b43c f594 61bd 20db babd
00000070: a2d6 98bd ff4f 4e3d 8433 c73c 7e60 6abd
00000080: 5dd1 953d 4792 81bd d300 fbbd 65d2 543d
00000090: 1083 3abd 8cb6 32bd 830f de3d 2100 d43d
000000a0: f46a 0fbe 6661 093e 06aa 083e 44a2 c0bd
000000b0: 9c56 20be 6097 f2bd 3163 42bd 2198 80bc
000000c0: 9431 7e3d a435 1b3d 4e33 d53c cf90 bebd
000000d0: 74ad 103e 6b00 013e f7e2 a03d fffd 0f3d
000000e0: f79f cebd a25b 523c 840e cdbd b0df 1d3e
000000f0: 10cb 11be c328 ea3d ab84 073e 37e6 c1bd
00000100: f6c8 03be 6af1 293d e736 c2bd d75d 0bbe
00000110: 1e9b d6bd 06c5 de3d 5544 87bd 33b8 9fbd
00000120: d93b 84bd 20e6 ee3d 7869 593d 637b 983d
00000130: b814 87bc 8166 b0bd be3e 2b3d cf76 353d
00000140: 4915 023e 7e91 f2bd abe9 bebd 9583 b33d
00000150: 81c5 393d 6ad0 d63d 2f02 4dbc 6987 0c3e
00000160: c84b 583d e9f5 93bd 37a6 80bd 9eec 283d
00000170: eacf 9b3c a379 81bd 2ffa 96bd 1645 5e3d
00000180: 0ce5 983d 7d70 fa3d b727 51bd d088 b4bd
00000190: cbd5 97bd ec32 bebd 9415 0d3e fb6a 93bd
000001a0: 7e3b 80bd f009 e03d b9ac e83d ae4b 18be
000001b0: b479 c7bb 184a 6e3d 4548 273d c723 b9bd
000001c0: ff88 03be 50be babd 25a5 5c3d 86ad 1ebd
000001d0: 803f cfbd 36f5 233e 5d58 6b3d 2f34 33bd
000001e0: 4ccc 043d 16bc 87bd fb31 bfbd 6877 1bbe
000001f0: 5aed a63d 0499 19be 6b85 d9bd fd68 fd3d
-0.116910785 0.12984295 0.13874821 -0.07973073 0.044004407 -0.04183922 0.08199422 -0.08705895
0.109774746 0.14590926 0.09045936 -0.023451328 0.020130837 0.0650235 -0.086375736 -0.064735085
-0.13312924 0.1168134 -0.068280004 0.117666714 -0.011467208 -0.063521445 0.077484615 -0.009445196
-0.09912846 0.022019392 -0.055073697 -0.09123826 -0.07462813 0.05036926 0.024316557 -0.05722093
0.073153235 -0.06326728 -0.122560166 0.05195846 -0.045535147 -0.04363112 0.108428024 0.10351587
-0.14005643 0.13416061 0.13346109 -0.0940595 -0.15658039 -0.11845279 -0.047457878 -0.01569754
0.062059 0.037892953 0.02602544 -0.09304964 0.14128667 0.12597816 0.0785579 0.03515434
-0.100891046 0.01283923 -0.10012534 0.15417361 -0.14237618 0.11433556 0.13234203 -0.09467738
-0.1286963 0.041489996 -0.09483128 -0.13610016 -0.10478805 0.10877423 -0.0660483 -0.07798805
-0.064567275 0.116649866 0.0530791 0.07445409 -0.016489372 -0.08613301 0.041807882 0.044302758
0.12703432 -0.11844157 -0.093219124 0.08765332 0.04535437 0.104889706 -0.012512728 0.1372353
0.052806646 -0.07224638 -0.06281703 0.04124128 0.01902004 -0.063220285 -0.073719375 0.054265104
0.07465562 0.12228487 -0.051063266 -0.088151574 -0.07413825 -0.09287056 0.13777763 -0.07198139
-0.06261347 0.109393954 0.11361069 -0.1487262 -0.006087506 0.05817613 0.040840406 -0.09040027
-0.12845229 -0.091183305 0.05386843 -0.038739704 -0.101195335 0.1601151 0.057457317 -0.043750938
0.032421395 -0.066276714 -0.09335705 -0.15182269 0.0815074 -0.14999777 -0.106211506 0.123735406

weight f4 [128, 128]
00000000: 0d51 48bd b866 b3bd 2594 c53c c8f9 aabd
00000010: 2ff5 f4bc edc4 79bd e1f6 a5bc 561c 9bbd
00000020: 9549 773d 97ea 9c3d dc2e f03d 8940 9cbd
00000030: 015b c2bc 2765 cb3d ab1b 623d 13a6 3abd
00000040: 22f7 703c 7fbf 69bd 4ac6 b73d e01e 84bd
00000050: 1e0b c33c 04c6 8ebc 8810 e7bd 124f dc3c
00000060: 5ca2 b93c ccc2 d5bb 06f4 90bc 86c5 4cbc
00000070: 140e 97bd 42a7 433d d8f2 80bc 88cf 9d3d
00000080: 826d 7f3c 1200 c13c 2bc5 513d 488e 1abd
00000090: af3b 1cbd 95da 2abd cd66 1ebd 6518 8abd
000000a0: 9301 933c 2d4d 97bc b097 8ebd 836c 7b3d
000000b0: 93fe 543d 84d8 9a3d 0b62 773c 4b03 1dbb
000000c0: 183a f73d 9d54 97bd c4d1 ea3c 6bc6 293e
000000d0: 7c25 8e3d b048 abbb dde3 e53c a81e 4a3d
000000e0: 0e23 af3c 7e26 ffbb b15f a13d c9c5 a53d
000000f0: c283 44bd 8fe3 e53d fd33 b2bc d174 1b3d
00000100: 42c8 b53d 6170 2cbc 8974 e73d 7e67 e83a
00000110: 6bd2 5bbd 58b4 efbc c802 903d 61ea 333d
00000120: b9ac 2dbd 9305 a73d 1ab1 913c 03bd 8b3d
00000130: afcc df3d dc59 05bd 0a71 ab3d 32cf aabb
00000140: 7f1a 583d 0215 71bd f1bc ca3b 1f3e 8c3b
00000150: e263 b1bd ec4a e4bb f622 8f3d e411 323d
00000160: 6b23 98bd 0f85 ad3c 4ecf 233d 3115 aa3d
00000170: 1bbd c4bd 096b 3a3d 9144 71bd 7c2c 303d
00000180: 5bfc 3f3d 8863 833d e9e3 943d d093 ee3d
00000190: a807 52bb 8039 9abb 7663 0d3d 25fe 903c
000001a0: 08dc 9ebd 42c5 9d3d 1e08 a63d cc7f 173d
000001b0: 4883 41bd ead8 b6bd ab5d 4b3d 13f1 43bd
000001c0: abcd 073d af6e e3bd 758f 5f3d 8e24 55bd
000001d0: 2051 3c3e 75fb 1f3d edcf adbd 1dc5 a03d
000001e0: 104b a0bd f26e 30bd 3d8c 753d ad22 35bd
000001f0: b7ec 113d e209 3c3c 0d2a 15bc cd06 32bd
00000200: b1ce a03d e9d7 0cbc fdea 773d df77 353c
00000210: 36b4 00bd 13a5 e2bc 08ac 873d 4671 b8bd
00000220: f6ba eabc af95 60bd 0333 3fbd 2304 ae3c
00000230: 7993 1cbc 8bd4 9c3d 201c 8e3d ced5 fc3c
00000240: 41a1 af3d ecec 04bc b6fa d33d faee c93c
00000250: f73f 9dbc b12f 0c3d 1d5a d2bd c80d a33d
00000260: b886 f43d ca89 84bd b9b3 49bd af0a a73d
00000270: 4ad6 b43b c8f3 acbc 47cc 1abd 2a32 1c3b
00000280: 105e 87bc b776 b43d 5682 2fbd 7014 993b
00000290: a37c b23c 172f f6ba ef8f bf3c 65c7 7fbb
000002a0: b2c2 bb3d 143e 943d 23a9 09bc 84a3 0ebd
000002b0: db41 0abd 8f02 eebc c4df 9d3d 05b7 993d
000002c0: 0fcf 693d 888a bebd 5d12 703d 46d8 683d
000002d0: 57f6 a03d 49bb 353d 8627 da3d c6e2 033d
000002e0: 8d88 ba3c c650 b73b 5033 943d 9b29 893d
000002f0: c15f 293d 193b c5bb 91bc afbc 42f4 c03d
00000300: d6f7 21bd 262a 483d e06f a53d d485 9c3d
00000310: 27b2 60bd 617f 1ebd 4fa1 653c 20cb 32bc
00000320: 9039 a4bd 0317 653d 76ea 88bd 3d0e 78bc
00000330: 51d1 383d 126f 8f3d 19b7 51bc e6fe 2bbd
00000340: 5be0 ccbc 813d 22bc 87f3 2cbd 4f0d ec3c
00000350: 8d90 1d3d 4644 963d db23 8d3d 4b92 26bc
00000360: aae9 2d3d c138 e63c 9aac a53d 7c75 c4bc
00000370: 4b41 983d 5cb8 aa3c b140 923d 0d3e a63d
00000380: b31c 4abc b211 a43d f63e 10bc 1088 553d
00000390: c361 5abc 589e 30bd f2d6 d2bb ae4d 6e3d
000003a0: 57aa 4c3d a5fd 9bbd 4a49 27bd 17a4 273d
000003b0: 842e 71bd fb9a af3b 78a8 90bd 6e64 cb3b
000003c0: b010 76bc bf97 843c 103e ef3c 09f0 843d
000003d0: 3e52 6e3b eeb9 813d e272 bb3d 86d6 73bd
000003e0: f884 3a3d 9abf 8cbd b733 573d d222 13bb
000003f0: 3096 343c 88d7 e7bc 1320 873d b23b 803c
-0.04890542 -0.087598264 0.024118492 -0.08348423 -0.029902069 -0.06097882 -0.020259323 -0.07573764
0.060372908 0.07661932 0.11727688 -0.076294966 -0.023725035 0.09931403 0.055202167 -0.045568537
0.014707359 -0.05706739 0.089733675 -0.064512014 0.023809012 -0.017428406 -0.1128245 0.026893172
0.022660427 -0.0065234657 -0.017694484 -0.012498265 -0.07375732 0.04776693 -0.015740797 0.07705599
0.015590074 0.023559604 0.051213425 -0.037733346 -0.038142856 -0.041712362 -0.038672257 -0.06742934
0.017945087 -0.018469417 -0.06962526 0.06138278 0.052000593 0.07560828 0.015099059 -0.0023958262
0.120716274 -0.073891856 0.028664477 0.16579597 0.06940743 -0.005227171 0.028062755 0.049345642
0.02137902 -0.007786571 0.0787958 0.08094365 -0.047977217 0.11225044 -0.021753306 0.0379532
0.08876087 -0.01052484 0.11301524 0.0017731038 -0.053667467 -0.0292608 0.070317805 0.043924693
-0.04240105 0.0815536 0.017784644 0.068231605 0.10927712 -0.0325564 0.0837117 -0.005212688
0.052759644 -0.058857925 0.0061870744 0.0042798663 -0.08661629 -0.006966939 0.0698909 0.043474093
-0.074286304 0.021181611 0.039992623 0.08304823 -0.096063815 0.045512233 -0.05890328 0.043011174
0.046871524 0.064154685 0.07270033 0.11649287 -0.003204802 -0.0047065616 0.03451868 0.01769931
-0.077568114 0.077036396 0.08107017 0.03698711 -0.04724434 -0.08928092 0.049649876 -0.04783733
0.033155125 -0.111050956 0.05458017 -0.052036814 0.18390322 0.039058167 -0.08486924 0.078500964
-0.07826817 -0.043074556 0.059948195 -0.044222523 0.03562614 0.011476966 -0.009104264 -0.043463517
0.07851923 -0.008596399 0.060526837 0.011075943 -0.031421863 -0.027666604 0.06624609 -0.0900598
-0.028653603 -0.05483025 -0.046679508 0.021242207 -0.009556645 0.07657727 0.06938958 0.030863669
0.085756786 -0.008113127 0.10350554 0.024650086 -0.01919554 0.03422517 -0.10271094 0.07961613
0.11939758 -0.06471594 -0.049243663 0.081563346 0.0055187093 -0.021112338 -0.03779247 0.002383361
-0.016524345 0.088117056 -0.042848907 0.004671626 0.021787947 -0.0018782344 0.023384063 -0.003902876
0.091679946 0.07238403 -0.008402142 -0.03482391 -0.03375421 -0.029053954 0.077086955 0.07505611
0.057082232 -0.093037665 0.058611263 0.05684688 0.078594856 0.044368062 0.1065207 0.03219869
0.02277019 0.0055943457 0.072363496 0.06697389 0.041351084 -0.006019008 -0.02145222 0.094215885
-0.039542995 0.04886832 0.08077979 0.07642713 -0.0548574 -0.038695697 0.01401551 -0.010912687
-0.08018792 0.05593015 -0.06685345 -0.015140113 0.045121495 0.07003607 -0.012800002 -0.041991137
-0.025009325 -0.009902359 -0.042224433 0.02881494 0.038467932 0.07337241 0.068916045 -0.010166715
0.042459168 0.028103234 0.08089562 -0.023981802 0.07434329 0.020839863 0.07141245 0.08117304
-0.012335944 0.080111876 -0.008804074 0.052131712 -0.013328972 -0.04311976 -0.006434315 0.05817955
0.049967136 -0.07616738 -0.04084138 0.040927973 -0.05888225 0.0053590513 -0.07063383 0.0062070405
-0.015018627 0.01618564 0.029204398 0.064910956 0.0036364938 0.063342914 0.091527715 -0.059530757
0.045536965 -0.068724826 0.052539553 -0.0022451174 0.011022136 -0.028301015 0.065979145 0.015653465

bias f4 [128]
00000000: 49fd 9d3c 020c 1bbc 5b0b 893c 2115 4cbd
00000010: 531e a53d b3c2 adbc bc53 283d 9c78 913d
00000020: 18a1 89bd c0fa 0bbd f439 8ebd 017a 9e3d
00000030: 10a2 65bd 19d3 4f3d 6c21 9dbc 96f7 a9bd
00000040: b1aa 5bbd 02a8 76bc 67ed af3d 0d0c b5bd
00000050: bffa 59bd cd51 963d 9c75 98bc 0277 24bd
00000060: ddc6 f03c 0a34 08bd 1cd8 2abd 1dfc a93d
00000070: 9fec 26bb 0aa8 9fbc 9984 a6bd bb81 d33c
00000080: 4515 8dbb fae5 4d3d e27b 8b3c 5e6d 743d
00000090: 7b75 8c3d 42e4 75bd a3ab 9cba 52c8 3f3d
000000a0: 8c65 883d a093 7f3d 2702 a43d 3c77 adbd
000000b0: 6eff 16bd fd0b 3bbb 1ded 9f3d af64 b03d
000000c0: ddbb 81bd 9420 94bc 6e63 3ebd 4604 85bd
000000d0: 9847 84bd 1e19 96bd 0caf 9a3d 7b6b 603c
000000e0: 05af 4e3d 063d 91bd 0ca8 893d 1383 42bb
000000f0: d1e3 953d 222c 583d cf34 e8bb cbbf 843d
00000100: 1e92 efbc 849e 203c 31b8 923c e69a 7b3a
00000110: cbd9 18b9 c483 a33d cc73 e03b 8f0d 4dbd
00000120: eb23 783d 5c95 71bd 139f 533d ef9b 9c3d
00000130: 858a 14bd b46d b43c e97c b73c 03b4 e33c
00000140: 6cfa 8bbd e5e0 9d3d 7f90 78bd 3d37 ea3c
00000150: 1685 3cbc f348 8abd 0f0d d03c e53a eebc
00000160: 792b 423d 2b1a e339 df66 d1bc 517a 013c
00000170: d2b9 c13d 0c45 673c 6121 a1bd 69fe 87bd
00000180: b810 803d 7a0f 68bd 0511 463c 87c5 213d
00000190: 5d8a 993d a0a0 8f3d 4989 a23c 24f3 453d
000001a0: ca6b 3839 43a3 843b 48cd 7a3d 85fe 40bd
000001b0: 0da9 36bd ce17 5f3c 9669 96bd 6d45 643d
000001c0: 8d8d 963d 9bcc 63bd d2c7 08bd 9079 57bd
000001d0: c997 313d 5937 fcbc 224c 95bb de24 38bd
000001e0: b8ea 1b3d e842 26bc e890 a13c 6193 0ebc
000001f0: 29e8 043d 13f4 eabb ac58 8a3d 26c9 f7bc
0.019285815 -0.009463312 0.016729048 -0.049824838 0.080624245 -0.021211004 0.04109548 0.071030825
-0.06720179 -0.03417468 -0.069446474 0.07738114 -0.056062758 0.050738428 -0.019180976 -0.082991764
-0.05362958 -0.015054705 0.08590203 -0.08840189 -0.053217646 0.07339821 -0.018610768 -0.040152557
0.0293917 -0.033252753 -0.041710004 0.0830004 -0.0025470627 -0.019489307 -0.0813076 0.025818696
-0.004305514 0.05026815 0.017026845 0.059674613 0.06858345 -0.060032137 -0.0011953007 0.0468219
0.066599935 0.062396646 0.08008223 -0.08470008 -0.03686469 -0.002854108 0.07808898 0.08612954
-0.0633466 -0.01808194 -0.046481542 -0.06494956 -0.06458968 -0.073290095 0.07552919 0.0136975
0.05045988 -0.070917174 0.067215055 -0.0029680177 0.07318843 0.052776463 -0.0070863734 0.06481894
-0.029244479 0.009803418 0.017910095 0.0009597972 -0.00014576984 0.07984117 0.0068497416 -0.05006176
0.06058113 -0.05898033 0.051665377 0.076469295 -0.036264915 0.022024967 0.022398429 0.027795797
-0.068348736 0.07708911 -0.060684677 0.028590793 -0.01150634 -0.06752195 0.025396852 -0.029080817
0.04740474 0.0004331631 -0.025561748 0.007902698 0.094592705 0.014115583 -0.07867695 -0.06640322
0.06253189 -0.056655385 0.012089019 0.039495017 0.07497094 0.07013059 0.019840853 0.04832758
0.00017587762 0.0040477826 0.061230928 -0.04711773 -0.044594813 0.013616515 -0.07344358 0.055730272
0.073512174 -0.05561505 -0.03339369 -0.052606165 0.043357644 -0.03078811 -0.004556195 -0.044957034
0.038065642 -0.010147788 0.019722417 -0.00870213 0.032447968 -0.007170209 0.06755194 -0.030247282

weight f4 [128, 128]
00000000: 7356 bb3d efe7 9bbb feb4 1f3c 37a8 15bd
00000010: ac29 89bd e19a 81bd 9ce8 23bd cc02 6c3d
00000020: 8186 913d 75a1 99bb 1dc8 003d d22b c13c
00000030: 628f be3d 4c8a da3d 3cf1 d93d c4b2 1abd
00000040: d2f2 b93d c665 94bd 401b 053c 26d9 49bd
00000050: 0fbf b63d 6aac 843c 29da a3bd 636b bb3c
00000060: b9c8 c0bc 7cae f23c 3d1e 8bbd 7801 aebc
00000070: 7204 75bd 3bc8 fc3d aa04 723d b9aa 8a3c
00000080: 1f4a 583d 5be6 113c 3244 533d 772f 823d
00000090: 0134 6d39 e7c2 bb3d abcb 3ebc 0f45 43bb
000000a0: 39c5 abbd fbce 9bbd 2ead 21bd b265 0f3d
000000b0: ff01 743d 7533 14bd 0277 febc bef5 963d
000000c0: 8a72 8e3b fb0e 653d 29ed ed3c e2e9 d83d
000000d0: 728b c43d 8e76 17bd 4f55 63bd bc55 71bd
000000e0: 396c ffbc 145c 5dbd 4333 c6bd d2a4 aa3d
000000f0: ee79 9b3c dabf 243d 6e74 ddbb 3009 0f3d
00000100: a9f4 e0bd 0c7e ce3c 6ba7 123c abb1 ae3c
00000110: 5a23 c7bc 9c49 803c adf0 5fbc 08bf 23bd
00000120: 8c08 6abc 6246 cc3b 26fe 36bd 4f95 b93d
00000130: 42f1 8c3d a2b9 1a3d f4d6 20bd 73b8 af3d
00000140: f3e3 3abd 3423 5a3d 6983 223a fd01 f73c
00000150: cd73 87bd 7856 98bb 0f37 333c b79e 80bc
00000160: a135 b53d 4777 7ebd 1c7b a0bd b28b 19bd
00000170: 43e9 cabd 8e6c 55bd fc23 973d 5f65 d23c
00000180: c33a d1bd 70a0 9fbd cbc3 833d dea7 adbd
00000190: 6745 383d 386b e13d 877b 88bd a9f5 0a3d
000001a0: 9a8a 9ebc a4b2 e4bc cf37 e73c dd51 c0bd
000001b0: 6f21 e9bc 73ae 263d df6f b5bc 8537 8bbd
000001c0: afb9 d5bc 8f9f 5b3c 916a ba3c c2e5 543d
000001d0: ee56 72bd 2164 27bd 5a56 963d 0759 b3bd
000001e0: 3189 263d 7ecc 80bd b046 823d 8a09 4f3d
000001f0: b67e 5dbb 873a afbc 95fa 653d b492 be3c
00000200: 38f9 093d 26b7 c63d 50ae a9bd 8b78 97bc
00000210: 8458 68bd 5941 babc ea6e 62bb 2d37 98bb
00000220: cdb2 cbbc 1f7e 07bd 8a42 5d3c a3fc 913d
00000230: 2f81 1338 d8b0 c73c fe6c 8cbd 0918 0b3d
00000240: 66b3 9ebd bc22 4ebc 1740 e43c 6fa8 09bd
00000250: d96e 34bd 0b0a 633d 34f8 c63d d7a0 f5bc
00000260: 2c33 c9bd af33 f23c 7d99 a53d cf89 cb3c
00000270: 6f78 b43d 41d9 2fbd b076 adbc 97aa ac3d
00000280: 510e 23bd 95c1 c3bb 6fc5 11bd 4628 b1bc
00000290: bbb0 9cbb 39ae 8c3b 6b3f b43d 5665 9ebd
000002a0: 5e2a f6bc e09c 6e38 e8a4 e5bc 4227 993d
000002b0: a130 993d 37a5 4a3d f9e7 b53c efa7 723d
000002c0: ed7c f6bc 24de 98bd c43c 963d 0e7f 1bbd
000002d0: ac25 d4bd 78b6 98bd ad1a cebc 0a40 dd3d
000002e0: ecce d23c b154 40bd 3a0f 603d aaf0 c33c
000002f0: 7f7e 4c3d b9ee 203d 3ce8 35bd b1bf c63d
00000300: f324 e23d 7078 7cbd a028 933c 318c 8f3d
00000310: 3a23 81bd 605b 193b ee94 92bd 8fdf 9d3d
00000320: 19ad dc3d ea2b 49bd 0da5 85bd 2334 433d
00000330: 534f fd39 05be 1e3d 9417 07bd d73e 5fbd
00000340: f904 5f3d 60a3 283d cadb edbc d558 11bd
00000350: 3771 1d3d 9828 1ebd 4da9 753d 44b7 7a3d
00000360: b59f c0bd f0fe 263d bd33 c03d c9b6 92bd
00000370: 99c5 343d 268f 8c3c 5026 49bc 5b38 8f3c
00000380: bc2a 583d 078e b0bd aa7d 8ebd 1b73 6b3d
00000390: d835 a03d f8a5 d7bd 68bb 483d 79ff e0bc
000003a0: 8566 143d 553c a1bc 6f3f 933c 66a7 c83d
000003b0: 956e 483c 63d1 b6bd 6f46 99bc 980f 6abd
000003c0: 418a 603d 4069 66bc 412c 823d 2d91 74bd
000003d0: c2b4 26bd f416 fb3d b4c8 813d 1740 9b3c
000003e0: e1ba 313d 27e7 82bd ec2c 9e3d 6a22 2dbd
000003f0: 4ec2 65bc ee0f b8bd f113 643d 3976 3bbd
0.09147348 -0.0047578732 0.009747742 -0.036537375 -0.066974014 -0.06328369 -0.040016755 0.057619855
0.07105733 -0.0046884366 0.031440843 0.023580465 0.09304692 0.10670909 0.10641715 -0.03776814
0.090795174 -0.07245974 0.008124173 -0.049279355 0.0892316 0.016195495 -0.08000595 0.022878354
-0.023533212 0.029624216 -0.06792877 -0.021240935 -0.059818693 0.123428784 0.05908648 0.01692711
0.052805062 0.008905019 0.051578708 0.063567095 0.00022621454 0.09168034 -0.011645238 -0.00297958
-0.083872266 -0.07607838 -0.039471798 0.035009094 0.059572216 -0.036181886 -0.031062607 0.0737109
0.00434715 0.05592249 0.02904375 0.105914846 0.095969096 -0.036978297 -0.05550128 -0.058919653
-0.031179534 -0.05404289 -0.09677746 0.08332218 0.018979039 0.040222026 -0.0067582643 0.03492087
-0.10984165 0.025206588 0.008951048 0.021324953 -0.02430885 0.0156601 -0.013668221 -0.039977103
-0.014284264 0.006233976 -0.04467597 0.090616815 0.06881954 0.03777469 -0.039267495 0.08580103
-0.045627546 0.05325623 0.0006199391 0.030152315 -0.06613884 -0.0046489798 0.01093842 -0.015700681
0.088481195 -0.06212547 -0.07835981 -0.03748674 -0.099077724 -0.05210548 0.0737991 0.025683103
-0.10216286 -0.07794273 0.06433829 -0.08479284 0.044988062 0.110067785 -0.06664186 0.033925686
-0.0193532 -0.027917214 0.028224854 -0.09390614 -0.028458325 0.04069371 -0.02214807 -0.06797699
-0.026089517 0.013404741 0.022755893 0.051976927 -0.059164934 -0.040866975 0.07340689 -0.08757215
0.04065818 -0.06289004 0.06361139 0.050546207 -0.003379745 -0.021390213 0.056147177 0.023263313
0.03368494 0.097029015 -0.082852006 -0.018490097 -0.05672504 -0.022736238 -0.0034550973 -0.0046452493
-0.024865532 -0.033079263 0.013504634 0.07128265 3.5167843e-05 0.024376318 -0.06856726 0.03395847
-0.07749061 -0.0125815235 0.027862592 -0.033607896 -0.044051025 0.0554295 0.0971531 -0.029983921
-0.098242134 0.02956566 0.08085916 0.024845986 0.088120334 -0.0429318 -0.021174759 0.08430975
-0.039808575 -0.0059740045 -0.035588678 -0.02162565 -0.00478181 0.00429323 0.088011585 -0.07734172
-0.0300495 5.6889723e-05 -0.028032735 0.07478191 0.07479978 0.049473967 0.02220534 0.059242185
-0.030088866 -0.07464245 0.07335809 -0.037962966 -0.10358748 -0.07456678 -0.025159204 0.1080323
0.025733434 -0.046955768 0.05470202 0.023918469 0.049925324 0.039290164 -0.04441093 0.09704531
0.11042204 -0.061638296 0.017963707 0.07009161 -0.06305547 0.002340041 -0.07157312 0.07708656
0.10775203 -0.049114145 -0.065256216 0.047657143 0.00048315022 0.038755435 -0.03298147 -0.054503288
0.0544481 0.04117143 -0.029035468 -0.035485107 0.03843805 -0.038612932 0.05997591 0.061209932
-0.09405462 0.04077047 0.09384868 -0.0716377 0.044133756 0.017158102 -0.012277201 0.017482927
0.05277513 -0.086208396 -0.06957562 0.05748282 0.0782277 -0.10529703 0.04900685 -0.027465569
0.036230583 -0.019682089 0.017974583 0.09797554 0.012233396 -0.08926656 -0.018710343 -0.057143778
0.05481935 -0.0140631795 0.06356097 -0.059708763 -0.040699728 0.12260237 0.06337109 0.018951459
0.043391112 -0.06391745 0.07723412 -0.042269148 -0.014023377 -0.08987413 0.05568308 -0.045767043

bias f4 [128]
00000000: 0cbe 813c 72db 2ebd 09eb a23d db4c b9bd
00000010: f30b a13d 8a65 7fbd 2da4 953d 983f a0bd
00000020: 01fc b5bb d8d3 36bd fb4d cfbc deea 9e3d
00000030: efab 18bd f3fa 7cbd a861 693d c6d3 943d
00000040: be29 35bd 11cf 5abd 2647 22bb c11e 013d
00000050: 4930 32bd cf85 dcbc 18e8 92bc 7f17 5abd
00000060: 0141 3cbd 7971 ca3c fa63 753d a165 a73c
00000070: fffb 95bc cb67 09bd e196 0b3d 6a13 0cbd
00000080: 2f52 57bb 0912 743c 7044 89bd 7ea9 29bd
00000090: 30ab 9c3d ed00 eb3c 1648 cfbc ab68 6f3c
000000a0: 32b9 adbd 275d 963d b008 1d3d 8a69 2bbd
000000b0: f380 28bd 785c edbc b7ba 20bb af43 1d3d
000000c0: 1267 313d d291 953d c5f8 3c3c ffaf c63d
000000d0: bc24 8b3d 28f1 96bd e027 3bbb 57d6 9f3d
000000e0: ae70 5d3d ef31 3b3d fd7d b93d 9cbc 9c3b
000000f0: f38c 383d 795c 8e3d 2fba d23c 80a6 7a3d
00000100: c517 8b3c ae65 89bd 6740 ae3d bc61 c03b
00000110: cfca ae3d eb95 3b3d 8549 1ebc d2a1 1cbb
00000120: 0042 4dbc eefc 803d 4eae d5bc 2e85 3b3d
00000130: 512a 953b 739a a13c 583d 993d 8cae 703c
00000140: 80ef bf3c e95e 8fbd c53c 53bd f9a1 18bc
00000150: efa2 a43c 2030 743d 8a4b 0f3d 2db8 9e3d
00000160: 0fda f2bc f261 3dbd 3b02 513d d22b 40bc
00000170: 10f9 763d c893 f53c 10fd b0bb 0869 0fbc
00000180: 8b16 eebc da4f 9b3d 1a68 cdbb 10c7 a7bc
00000190: af57 6b3d b8f6 24bb cb65 843c f8bb 773d
000001a0: af47 a5bd 897a 943d b9bb 1dbb 0479 56bd
000001b0: 2a1a 7bbd e855 55bd 90b9 9fbc 098c f2bc
000001c0: eb94 a93d d3d2 babb d20b 3ebd ecb5 7d3b
000001d0: 1d72 b33b 73d6 833c 44dd ee3c cb3a 8ebd
000001e0: 17da 64bd 1566 7d3d d48e 973d 7071 c43d
000001f0: 8b15 3e3b c60b f9bb 3926 92bd 6c9e aa3d
0.015837692 -0.042689748 0.07954986 -0.09047862 0.07863607 -0.062352695 0.07306705 -0.078246295
-0.005553723 -0.044635624 -0.025305739 0.07759641 -0.037273344 -0.06176276 0.056977898 0.07266955
-0.04422926 -0.05342013 -0.0024761646 0.03152347 -0.04350308 -0.026919274 -0.017932937 -0.053245064
-0.04596043 0.024712311 0.0599098 0.020434203 -0.018308638 -0.03354625 0.034079436 -0.034198202
-0.0032855382 0.014896878 -0.067025065 -0.041421406 0.07649839 0.028686965 -0.025302928 0.014612357
-0.08482589 0.07341986 0.038338363 -0.041848697 -0.0411386 -0.028974757 -0.0024525353 0.038394626
0.043311186 0.07303204 0.011533921 0.09701537 0.06794116 -0.07370216 -0.0028557703 0.07804554
0.054062538 0.045701917 0.090572335 0.004783226 0.045056295 0.069512315 0.025723545 0.061193943
0.016979108 -0.06708847 0.085083775 0.005871026 0.085347764 0.04579727 -0.009661083 -0.0023900163
-0.012527943 0.062982425 -0.026084092 0.045781307 0.0045521636 0.019726967 0.074824035 0.014690053
0.023429632 -0.070005246 -0.051571626 -0.009315961 0.020097224 0.059616208 0.03498415 0.077499725
-0.029644994 -0.046235986 0.051027518 -0.011729198 0.06029612 0.029977694 -0.005401261 -0.008753069
-0.029063484 0.0758359 -0.0062685134 -0.020480663 0.05745667 -0.002517147 0.01616182 0.060481995
-0.08070313 0.07249934 -0.002406819 -0.052361503 -0.06130425 -0.05208388 -0.019497663 -0.02960779
0.08280357 -0.0057014017 -0.04639799 0.003871317 0.00547625 0.016093468 0.029158242 -0.069448076
-0.05587205 0.06186493 0.07400289 0.09591949 0.002900454 -0.0076002805 -0.07136197 0.08330998

weight f4 [128, 128]
00000000: 4bca bc3d 6415 e7bc 45a4 0abb dafc 573d
00000010: 1d37 42bd 393a 88bd f5b7 a13d d0dd 6e3d
00000020: ca92 18bd 33e4 83bd 0701 863c 3ee0 18bc
00000030: 0cd6 82bc f5d8 48bd 776f 9a3d 1de9 503d
00000040: a25b 62bd 7c88 983b d0fa 393c 6a14 54bc
00000050: a31f 243d c7ca f33d 555e 883c 8dd7 063d
00000060: 030d 5d3d fa86 13bd e8d3 08bd 43f3 723d
00000070: bb46 0f3d d390 34bd 5e1a 62bd 3a6f 053d
00000080: da63 f0bc 854a d3bb a6f8 b63d 4f96 043c
00000090: 728a c93c 3ddb c73d a0d3 983d ce8a a43d
000000a0: 8d10 06bd 15fa 6b3c f9ee 543d b43c 893d
000000b0: d5da b73d 5e5e 863d 3728 23bd 4937 92bd
000000c0: 85b8 ab3d 861e 153d 42d8 313d aa47 e0bc
000000d0: 78b4 a6bd c20a 27bd c0c3 2fbd 3779 43bd
000000e0: 8cb0 b03d c43d 67bd e935 a73d d523 e93d
000000f0: 3ccb d53d 64c3 7f3c ffb6 203d 7203 813d
00000100: cb89 f73c f76b 11bd fae6 0ebd 3102 b23d
00000110: 7d02 743d 51b4 d33d dec5 243d 200c 403d
00000120: 6110 97bd ae3e 8fbd 146d ef3c a441 2a3d
00000130: adde b33d f0b8 84bc 674f fbbc 5fc1 803d
00000140: 8ff5 5b3c 904e 69bd 14fd 1bbd 3315 c53b
00000150: 1aef aa3d 40c7 30bd 49e0 5a3d 2e64 cbbd
00000160: 4a79 ac3d cab1 163d 8720 0fbb eb59 943d
00000170: 1299 b73d bc2b 3d3d ebd0 cebd 1800 7a3d
00000180: 9ec6 89ba b4ef 9abd d0bd 883d 6af6 15bd
00000190: 6a55 2b3d 39d1 bd3d 0661 e13c c8c2 6c3d
000001a0: 3f72 403d 3b01 4abc bc32 c4bc 71f6 893d
000001b0: 9fef c73c 7748 bd3c d52d 193b fe63 023d
000001c0: c566 1e3d b217 cd3c a993 7f3d 793e 94bc
000001d0: 83a5 853d a7b8 853d 728c 1abc f747 76bd
000001e0: e7d1 d4bd f893 203d 6657 2a3c 2e6e c23c
000001f0: cdc5 2abd c402 97bc 3945 3abd bdba 473c
00000200: 911f 0abd e417 a8bd ad2a 96bd 208a a03d
00000210: eb4b 3bbd 20d1 9ebc f9a1 2f3d 72e8 193c
00000220: 8bbd b8bc 9ebc 363d 2407 61bd aa2b f93c
00000230: ac54 aa3d 099c f3bc 7081 85bd 2fd5 ae3d
00000240: 9085 ab3d b3a4 c43d 8083 0dbd 6771 753b
00000250: 198c fb3d 4573 933d a4fd 113d cf92 233d
00000260: d822 543d f7af 0cbd 3d62 9ebc f9bc b73d
00000270: 8fb7 3c3c 45f8 b13b ca14 5c3d f6bd f63c
00000280: 3b6a 2a3d 9552 b73c 4bc9 f0bb 2858 dc3d
00000290: a6ec 98bd f9f8 8cbd cb66 6c3d 1f63 893d
000002a0: 111a 94bb 14bb 103c 7ae9 f3bb a1ef a93d
000002b0: 479c 19bd b35d 333d cbe3 42bd e1a3 733c
000002c0: 6ee6 613d bc9f 8c3c 7fc3 beba 1054 873d
000002d0: f8a9 f8bc 31ce 5bbd 6faf 483d acdd 82bd
000002e0: f88c 08bd 0c47 dd3d 048b cabc d1c7 83bc
000002f0: 4647 b33d 7c09 1f3d 9fe7 7ebd d9dd 883d
00000300: 87a2 4d3d 66c4 ecbc 4cdc debc b626 e83d
00000310: 36d0 14bd 7097 ed3d 2160 353d 26e5 e13c
00000320: 8764 52bd 5d1e 123c 808d 9e3d f34c fd3b
00000330: 6d1f 37bd 239f b03d ad46 a8bd 92dc 1e3d
00000340: cc68 3d3a 57f1 c43c df60 e13d 1107 e23c
00000350: 7699 7fbd bc92 f7bb 752b 623d b094 3ebd
00000360: 02ff ab3d b0f5 7bbd c0d5 5a3c fa6f 9b3b
00000370: 8477 e8bc 4c63 e83d 0a56 5a3d 164c f1bd
00000380: b36a f2bc e2b2 82bd cdae 2d3d 1abd 4ebc
00000390: 7b40 543d 09bc 5d3d c97d 4a3c 6319 033e
000003a0: b3e4 9d3d af5a 07bd a60e e9bb 2127 4ebd
000003b0: 4647 693c 92e1 ad3d 5e84 a63d 5cc3 b9bc
000003c0: 37f3 93bd f93e 6d3d 4edb 33bd 20fe c2bc
000003d0: 28ef e73c 404f a5bb 97c4 d53d 6104 fdbc
000003e0: b533 e3bc 91ac dfbd 9388 7a3d 7db0 113d
000003f0: e12a f43c 8d7b 42bd 04d9 4e3c cc31 c9bd
0.09218272 -0.028208442 -0.0021155041 0.052731372 -0.04741584 -0.0665173 0.07896415 0.058317006
-0.037249364 -0.0644001 0.016357912 -0.009330807 -0.015971206 -0.04903503 0.075407915 0.051003564
-0.05526317 0.004654942 0.011351302 -0.01294432 0.040069234 0.11903911 0.016646544 0.03292041
0.053967487 -0.036017396 -0.033405215 0.059314024 0.034979563 -0.044083428 -0.055200927 0.032576777
-0.029344488 -0.0064480924 0.08934145 0.008092477 0.024602149 0.09758613 0.07462239 0.080342874
-0.032730628 0.014402886 0.051985715 0.06701031 0.08977286 0.06560968 -0.039833274 -0.07139451
0.08384804 0.036406063 0.04341913 -0.027377922 -0.081398904 -0.040781744 -0.04291129 -0.04772302
0.08627424 -0.05645539 0.081645794 0.113837875 0.104391545 0.01561055 0.03923702 0.06299485
0.030217072 -0.035503354 -0.034888245 0.08691824 0.059572686 0.10337127 0.040227763 0.046886563
-0.07376171 -0.06994377 0.029226817 0.041566506 0.087827064 -0.016201466 -0.03067751 0.062868826
0.013425245 -0.05695969 -0.03808315 0.00601449 0.08346386 -0.04315877 0.05343655 -0.09931217
0.084215716 0.036790647 -0.0021839456 0.07243713 0.08964743 0.046184286 -0.10098442 0.061035246
-0.0010511463 -0.07565251 0.06676829 -0.036611952 0.041829504 0.09268422 0.027512085 0.057802945
0.046983954 -0.012329395 -0.023949973 0.06736458 0.024406252 0.023105843 0.0023373265 0.03183364
0.038672227 0.025035713 0.06239668 -0.018096196 0.065257095 0.0652936 -0.009432899 -0.060127225
-0.10391598 0.039203614 0.010396814 0.023734178 -0.041692544 -0.018433936 -0.045476172 0.012190518
-0.03372151 -0.08207682 -0.073323585 0.07838845 -0.045726698 -0.019386828 0.04287908 0.009393798
-0.022551319 0.044613473 -0.05493845 0.030416328 0.08316931 -0.02973749 -0.06518829 0.08536755
0.083750844 0.096017264 -0.034549236 0.0037451626 0.12282581 0.0719972 0.03564228 0.03993493
0.051791042 -0.0343475 -0.019333953 0.089715905 0.011518373 0.0054312074 0.053730763 0.030119877
0.041605216 0.022378245 -0.0073482147 0.10759002 -0.07467012 -0.06883425 0.05771522 0.06708359
-0.004519709 0.008833665 -0.007443604 0.08297659 -0.037502553 0.04379053 -0.04758052 0.014870615
0.055151395 0.017166011 -0.0014554112 0.066078305 -0.030354485 -0.053663436 0.04899543 -0.06389937
-0.033337563 0.10804567 -0.024724491 -0.01608649 0.08753829 0.038827404 -0.06223261 0.06682939
0.050203826 -0.028902244 -0.027204655 0.113355085 -0.036331378 0.1160115 0.04428113 0.027575087
-0.0513654 0.008918372 0.07741833 0.0077301203 -0.044707704 0.08624103 -0.08216605 0.03878457
0.0007225394 0.024040861 0.11004805 0.02759126 -0.06240221 -0.007555334 0.055217225 -0.04652852
0.08398248 -0.061513603 0.013356626 0.0047435733 -0.028377302 0.113470644 0.05330471 -0.1178209
-0.029591894 -0.063817754 0.04240303 -0.0126183275 0.051819306 0.054134402 0.012359091 0.12802653
0.077096365 -0.033045467 -0.007112342 -0.050330285 0.014238184 0.0849029 0.08130716 -0.022676162
-0.07224124 0.057921384 -0.043910317 -0.023802817 0.02831228 -0.0050448477 0.10437887 -0.030885877
-0.027734617 -0.10921586 0.061165404 0.035568703 0.029805603 -0.04748111 0.012624983 -0.09823951

bias f4 [128]
00000000: 9c5a b8bb ce2e 343d 975c 19bd 8f44 da3c
00000010: 1e68 813d 0dba 64bc 22b1 663d 0a98 573c
00000020: cdc0 a03d 6741 6d3c 125e 9dbd a026 92bc
00000030: d285 6cba d6d2 9dbc d79d 6b3d 19d3 36bd
00000040: 5f1c aa3d e726 a7bc b018 42bd 4136 f4ba
00000050: 9d15 1f3d ec91 d3bc 9182 3abc e986 a63c
00000060: 438e 903d a88f b23d dfe6 0fbd 0423 66bd
00000070: a353 883b 85e4 a23d 51c2 8c3c 1413 5b3c
00000080: 3f32 5fbc 59a6 993d 5848 1cbd 1fa7 09bd
00000090: dd08 7a3d 69d6 cfbc 6c84 5fbd 2d0a cb3d
000000a0: fb61 313c 01a2 b8bc 3af2 453d be02 b43a
000000b0: d9ce bdbc 721e a7bd 955f 123c 520e d0bc
000000c0: e66c 12ba 8e6f 0d3d 110e c0bc 0d60 65bd
000000d0: 5f45 853c bd3f 62bd 83b3 1f3d ef78 923d
000000e0: a8c8 6a3d 9e41 6cbc 8c99 25bd 5ecc 803c
000000f0: 3758 9b3d 867b 20bd dd0d b6bc 76c4 33bd
00000100: 3859 913d 3df6 9a3c a89d 1dbc 4a5b 3ebc
00000110: 4c19 833d 3491 29bd b7e8 ef3c 3c47 9b3d
00000120: 3cbe b63c 34f4 a43d 63c8 9c3c f5a0 3f3d
00000130: 8bdd 713d 825c 543d 7486 89bd f253 003d
00000140: 5190 6bbd fcc2 983d 434b c4bc 2c4b 0dbc
00000150: 7ead 92bd a6dc a53d 5150 c13d caaa ca3c
00000160: fe13 733c 58ba 17b9 ed1a 603d 1bf5 713d
00000170: 1efe c5bc f2ff ae3c a779 debb 7370 973d
00000180: 576a 043d a695 44bd 6732 2bbd 54ca 693d
00000190: 5124 063d 2567 b4bc fac0 053c f56b b3bc
000001a0: 3c92 5abd dc56 9d3c 35e0 9c3d 8c12 babc
000001b0: 3908 e63c dee5 2abd c32e 613d 1388 963c
000001c0: 8be3 3b3d 3298 b43b 9da2 ad3d c4a3 76bd
000001d0: 3dbf f43c e2b1 95bd ab7b 893d c60a f53c
000001e0: f241 16bc c4e1 b03d 8b3b 27bd 00ea 933d
000001f0: c19d 8b3c 0cb4 503d 3c01 5d3d 0ce9 eabc
-0.005626036 0.04398995 -0.037441816 0.02664402 0.06318687 -0.013960374 0.05632127 0.0131588075
0.07849274 0.014480925 -0.07683958 -0.017840683 -0.00090226263 -0.019265573 0.057523575 -0.044634912
0.083061926 -0.020404292 -0.047386825 -0.0018631892 0.03883897 -0.025826417 -0.0113836685 0.020328002
0.07058384 0.087188065 -0.035132285 -0.056185737 0.004160361 0.07953743 0.017182501 0.013371248
-0.013622819 0.075024314 -0.03815493 -0.033606645 0.06104361 -0.025370793 -0.054569647 0.0991405
0.010826583 -0.022538187 0.04832671 0.0013733727 -0.023169922 -0.08160104 0.008933921 -0.025397453
-0.0005585685 0.034530215 -0.023444207 -0.055999804 0.01626843 -0.055236567 0.038989555 0.071519725
0.057320267 -0.014419941 -0.040429637 0.01572245 0.07585185 -0.0391803 -0.022223407 -0.04388853
0.07097095 0.018916244 -0.009620108 -0.011618445 0.06401309 -0.041398242 0.029285772 0.07581946
0.022307508 0.080543905 0.01913852 0.04678436 0.05904917 0.051846035 -0.06715098 0.031330056
-0.057510678 0.07459065 -0.023961669 -0.008623879 -0.07161997 0.08098726 0.09439147 0.024739642
0.0148363095 -0.000144699 0.05471318 0.05907164 -0.024169024 0.021362279 -0.0067894044 0.07394495
0.032327976 -0.04799428 -0.041796114 0.05707772 0.032749478 -0.02202184 0.008163685 -0.021902064
-0.053362116 0.019206457 0.076599516 -0.022713922 0.028080093 -0.041723125 0.054976236 0.018375432
0.0458713 0.005511307 0.08478282 -0.060214773 0.029876346 -0.07309319 0.06713041 0.029912364
-0.009170996 0.086368114 -0.04082827 0.07222366 0.017042996 0.050952956 0.053956255 -0.028675579
