agModels-predictClass/models/NeuralNetFastAI/model-internals.pkl (torch, 167502 bytes, 23 tensors)

weight f4 [8, 5]
0.0020522736 -0.0044967607 -0.0057224524 -0.0055455235 0.0059346044 0.012451883 -0.056960244 -0.09823417
-0.11583769 0.061709594 0.04938874 0.087383665 -0.03755713 0.09998304 0.090486646 0.041030798
0.044032108 -0.013401723 0.06507659 0.042051744 -0.09155607 -0.06954559 -0.01779873 -0.035724573
-0.01751869 0.01744319 0.08348214 -0.050641123 0.10662252 0.05827973 -0.008961076 0.005286986
0.12632409 -0.09987855 0.02664431 0.0069742096 0.049543943 -0.0023446088 -0.009950324 -0.08693924
00000000: 707f 063b 9059 93bb 6983 bbbb 39b7 b5bb
00000010: 1277 c23b fc02 4c3c 254f 69bd ff2e c9bd
00000020: 503c edbd 33c3 7c3d d94b 4a3d 35f6 b23d
00000030: 81d5 19bd e8c3 cc3d 1051 b93d e90f 283d
00000040: 035b 343d e692 5bbc e046 853d 733e 2c3d
00000050: c081 bbbd eb6d 8ebd a4ce 91bc ee53 12bd
00000060: 5b83 8fbc 05e5 8e3c aff8 aa3d 116d 4fbd
00000070: e85c da3d bab6 6e3d 7ad1 12bc 743e ad3b
00000080: 1a5b 013e 208d ccbd 2b45 da3c e987 e43b
00000090: 97ee 4a3d 02a8 19bb af06 23bc 330d b2bd

weight f4 [15, 7]
-0.010257391 0.013767418 0.0054195956 0.012115722 0.010731411 0.0308095 -0.03702085 -0.02345292
0.051012866 0.08475713 -0.030631777 0.026597498 0.06418758 -0.08272761 -0.030734282 0.057485938
0.026157323 -0.08744555 0.029245732 0.103687376 -0.11574274 -0.00914125 0.062935494 0.014360916
-0.052116565 0.033048924 0.09560086 -0.018363565 -0.032491866 -0.03792903 -0.0041478295 -0.033889852
-0.01717673 -0.033494942 0.011048333 0.07979289 -0.055501588 0.016771397 0.053973146 -0.08509733
-0.09298281 0.09357947 -0.007057822 -0.03293206 0.013894023 -0.059880093 0.045154773 -0.07369803
0.050959915 -0.0066324794 0.047091015 -0.031034723 0.03408465 0.035569735 0.059807524 -0.05306524
-0.022210883 0.05477873 -0.05405811 -0.11411952 0.04382697 0.11410516 0.06299931 -0.04078436
0.045925457 0.016722266 0.011264634 -0.031913728 0.01847065 0.054604683 0.035540767 0.017307194
0.0035610653 -0.08296331 -0.018076103 0.071522325 -0.038384024 -0.018910563 -0.025817081 -0.0060351877
-0.064787164 -0.011267768 -0.08284064 0.07043099 0.082487375 -0.038247317 -0.012169717 0.026812356
0.02294822 -0.017253926 -0.042302687 -0.017052302 -0.05185419 -0.10235911 0.110684045 -0.05597443
-0.101350576 -0.05142612 -0.04058907 0.030609012 0.031994116 0.08866429 -0.02233739 -0.050259255
0.010572642
00000000: 9e0e 28bc bd90 613c dd96 b13b 0581 463c
00000010: cdd2 2f3c 3464 fc3c 2da3 17bd 5720 c0bc
00000020: def2 503d 2595 ad3d 7eef fabc ffe2 d93c
00000030: c774 833d 186d a9bd 76c6 fbbc 6076 6b3d
00000040: e247 d63c a716 b3bd bf94 ef3c 0c5a d43d
00000050: 880a edbd 2ec5 15bc 53e4 803d 0c4a 6b3c
00000060: 2e78 55bd 4f5e 073d 62ca c33d 306f 96bc
00000070: 3116 05bd 785b 1bbd 84ea 87bb 16d0 0abd
00000080: 37b6 8cbc fe31 09bd 1104 353c 746a a33d
00000090: a255 63bd 2b64 893c f212 5d3d 8247 aebd
000000a0: c66d bebd 98a6 bf3d 4d45 e7bb c5e3 06bd
000000b0: c2a3 633c d444 75bd 36f4 383d feee 96bd
000000c0: 58bb 503d 4555 d9bb 82e2 403d 883c febc
000000d0: 599c 0b3d 92b1 113d bcf8 743d f05a 59bd
000000e0: 99f3 b5bc a95f 603d 096c 5dbd 7fb7 e9bd
000000f0: e983 333d f7af e93d c805 813d 800d 27bd
00000100: 551c 3c3d 22fd 883c 4d8f 383c f8b7 02bd
00000110: c34f 973c 29a9 5f3d 3293 113d d1c7 8d3c
00000120: c360 693b abe8 a9bd 5614 94bc 4c7a 923d
00000130: 9138 1dbd 53ea 9abc 587e d3bc d3c2 c5bb
00000140: 22af 84bd 729c 38bc 5aa8 a9bd 1f3e 903d
00000150: 24ef a83d 38a9 1cbd 7e63 47bc 96a5 db3c
00000160: e8fd bb3c 1b58 8dbc 9545 2dbd 45b1 8bbc
00000170: 0f65 54bd a7a1 d1bd 51ae e23d 7245 65bd
00000180: e490 cfbd 32a4 52bd ba40 26bd c0bf fa3c
00000190: 430c 033d a095 b53d e7fc b6bc a6dc 4dbd
000001a0: e038 2d3c

weight f4 [7, 5]
-0.010035816 0.04499916 -0.032473247 -0.0012479395 -0.037182596 -0.08611021 -0.056476917 -0.07612307
0.105912425 -0.039496835 0.10216874 0.024982449 0.05641448 -0.070895694 0.055588227 -0.08032044
-0.07412991 -0.058237158 0.05401288 -0.068549246 -0.032274034 0.020315366 -0.02086652 0.07084147
-0.029664384 -0.1114189 -0.0681271 -0.091275126 0.10881703 -0.011774837 -0.030660603 -0.04148498
0.020586116 -0.068011835 -0.03310311
00000000: 436d 24bc 0a51 383d ab02 05bd e791 a3ba
00000010: c74c 18bd 8d5a b0bd 5754 67bd 6ae6 9bbd
00000020: 9de8 d83d 6fc7 21bd d83d d13d fea7 cc3c
00000030: df12 673d c331 91bd 7bb0 633d 0b7f a4bd
00000040: 6cd1 97bd 168a 6ebd 9c3c 5d3d 8c63 8cbd
00000050: c731 04bd 696c a63c 44f0 aabc 5515 913d
00000060: b902 f3bc 982f e4bd 3986 8bbd 74ee babd
00000070: 77db de3d 3feb 40bc f22b fbbc 28ec 29bd
00000080: 37a4 a83c ca49 8bbd 2097 07bd

weight f4 [14, 7]
-0.045234136 0.06587524 0.054638743 -0.007578348 -0.015860595 -0.04312135 -0.011454006 -0.10512071
0.0583723 0.087321475 -0.07805155 -0.065649934 -0.006542526 0.08582127 0.08008494 -0.029435148
-0.03944905 -0.07413145 0.067802094 0.08416176 -0.054892994 -0.060000718 0.01040421 -0.07894628
0.051826455 -0.0014850975 0.04095915 0.08246147 0.09592935 -0.021180421 -0.05904564 0.08469202
-0.029767223 0.029299619 -0.035088543 -0.112908535 0.044749185 0.0614036 -0.057441894 -0.06579772
-0.080900244 0.018567761 -0.11583134 0.10123182 0.095118314 -0.032153945 -0.10463391 -0.0425249
0.068961434 -0.110148415 0.10599668 0.09602435 0.018994983 -0.092259474 -0.01171238 0.055465095
-0.05004077 -0.03887805 0.06236558 0.0045029577 -0.030089129 -0.04702816 -0.03993666 0.04799696
-0.06252667 -0.057366442 0.11141096 0.024550073 0.03126776 0.0009652103 0.13742663 -0.10864196
-0.12289111 -0.041341994 0.0978307 0.08951858 -0.044136588 -0.075657114 0.043659285 0.08494143
-0.055716015 -0.04937582 -0.08734638 0.030262582 -0.0278471 0.039568808 -0.028346777 0.098903544
-0.054388214 -0.02704372 0.009313317 0.06757229 -0.05859266 -0.060739808 -0.019774748 0.06626495
0.01670607 -0.053133946
00000000: 6e47 39bd 99e9 863d e0cc 5f3d ca53 f8bb
00000010: 14ee 81bc 03a0 30bd 95a9 3bbc 8749 d7bd
00000020: cb17 6f3d 9ad5 b23d 7ed9 9fbd 7973 86bd
00000030: b062 d6bb 10c3 af3d 9303 a43d fb21 f1bc
00000040: 5495 21bd 3bd2 97bd d3db 8a3d 005d ac3d
00000050: 7ad7 60bd 50c3 75bd 6b76 2a3c 96ae a1bd
00000060: fa47 543d 9aa7 c2ba c8c4 273d 8fe1 a83d
00000070: 9b76 c43d 9082 adbc d7d9 71bd 0373 ad3d
00000080: 64da f3bc c105 f03c 01b9 0fbd 973c e7bd
00000090: ec4a 373d 5782 7b3d 3148 6bbd f4c0 86bd
000000a0: 07af a5bd 6b1b 983c fb38 edbd a152 cf3d
000000b0: 64cd c23d dbb3 03bd 4e4a d6bd 972e 2ebd
000000c0: a73b 8d3d 7e95 e1bd ca14 d93d 6aa8 c43d
000000d0: 5e9b 9b3c 89f2 bcbd 48e5 3fbc 5e2f 633d
000000e0: 8df7 4cbd 973e 1fbd 0d73 7f3d 8c8d 933b
000000f0: 7a7d f6bc 9aa0 40bd a094 23bd 7698 443d
00000100: fc0d 80bd 13f9 6abd 6e2b e43d 3c1d c93c
00000110: 9f12 003d 2b06 7d3a 91b9 0c3e ad7f debd
00000120: 56ae fbbd 3956 29bd 765b c83d 8455 b73d
00000130: 91c8 34bd 1ef2 9abd 14d4 323d c6f5 ad3d
00000140: 7a36 64bd 4d3e 4abd a9e2 b2bd 3ce9 f73c
00000150: 9a1f e4bc e712 223d 8037 e8bc f18d ca3d
00000160: 2dc6 5ebd cb8a ddbc e296 183c 5763 8a3d
00000170: dbfe 6fbd 4eca 78bd a7fe a1bc ebb5 873d
00000180: 2bdb 883c fba2 59bd

weight f4 [7, 5]
-0.01434536 -0.0009824575 0.004847625 0.0070654363 0.0004300255 0.040832933 0.01193679 0.06650464
0.043442488 -0.03399692 -0.049471658 -0.09097481 -0.0893992 -0.012477675 -0.0031705555 -0.042454477
-0.055746235 -0.061916344 -0.060952455 -0.010766205 -0.032586973 0.028341254 -0.038713213 -0.036192
0.021029707 0.0019483537 -0.053067103 -0.07115535 -0.03828163 -0.041663364 -0.07757619 0.09948124
0.10795016 0.052332953 0.10392655
00000000: cd08 6bbc cec5 80ba d3d8 9e3b 2d85 e73b
00000010: 0c75 e139 6f40 273d 8792 433c 9633 883d
00000020: c0f0 313d 5b40 0bbd cba2 4abd 0051 babd
00000030: ee16 b7bd 2a6f 4cbc 18c9 4fbb bfe4 2dbd
00000040: 2a56 64bd fe9b 7dbd 48a9 79bd bd64 30bc
00000050: eb79 05bd eb2b e83c bf91 1ebd 103e 14bd
00000060: 7e46 ac3c e75f ff3a e45c 59bd e5b9 91bd
00000070: 33cd 1cbd 34a7 2abd 44e0 9ebd d2bc cb3d
00000080: f914 dd3d 145b 563d 71d7 d43d

weight f4 [6, 4]
0.010211183 -0.0025435088 -0.012734805 -0.0037149573 -0.038328346 -0.055427216 0.020059288 -0.08566109
0.12340865 0.12303111 -0.040792666 0.07547053 -0.13639124 -0.1304251 0.062247295 -0.10873693
-0.079054125 -0.07662519 0.007475077 -0.0704237 -0.06877128 0.029003343 0.05787531 0.03680634
00000000: ce4c 273c ffb0 26bb a5a5 50bc a476 73bb
00000010: 2ffe 1cbd a607 63bd 6053 a43c 156f afbd
00000020: adbd fc3d bcf7 fb3d 3616 27bd 4b90 9a3d
00000030: 25aa 0bbe 288e 05be 05f7 7e3d 78b1 debd
00000040: 21e7 a1bd abed 9cbd 7ef1 f43b 4d3a 90bd
00000050: f5d7 8cbd 6b98 ed3c a90e 6d3d 3fc2 163d

weight f4 [17, 8]
-0.06935314 0.06996559 -0.014817749 0.03448324 0.09063107 0.02629772 -0.049172353 0.04855658
0.084718786 -0.1174914 0.1185493 -0.078875184 -0.021479772 -0.05731308 0.017019048 0.09751297
-0.05746745 -0.08578738 0.03907337 -0.08448001 0.043039024 -0.08513818 0.08147141 0.095727496
0.095510215 -0.066333145 -0.076387435 0.05286214 -0.028059918 -0.01093188 -0.048802976 -0.08593383
-0.01073158 -0.011128813 0.01730854 0.026862541 0.020529043 -0.019755831 -0.0026888603 0.02423552
-0.0054328283 -0.016399214 0.02360763 -0.019820157 -0.021336474 0.008683587 -0.010565644 0.021491548
0.08828634 -0.014496744 0.01449724 -0.03337378 -0.02657371 -0.06217229 -0.0037531892 -0.05020149
-0.029443061 0.040768106 0.051854033 -0.07614566 0.05366331 -0.055747382 -0.038687646 0.093855366
-0.009821717 -0.01843052 -0.057660807 0.0027047254 0.028549396 0.014133733 -0.038279902 0.041774806
-0.027690213 -0.06223196 0.04118208 -0.108612195 0.05326745 -0.045694914 -0.08196168 0.09465872
0.009095357 0.00974333 -0.006307626 -0.010083038 -0.0022228463 3.6603644e-05 -0.0020550536 -0.008075933
-0.025254 0.06339587 -0.049268417 0.052279096 -0.0027935177 -0.0026691253 0.051734723 -0.068527274
0.0041110413 -0.053358063 -0.02347413 0.07357418 -0.0816835 0.0764405 0.019016925 -0.041678518
-0.034352522 0.047847413 0.091246806 -0.06620921 0.048810728 -0.041786827 -0.052313946 0.07774878
-0.03473277 0.043775346 -0.00048493088 -0.012881066 0.0247283 -0.023652634 0.028753024 0.025166987
0.01342224 -0.016669512 0.009600603 0.025163502 -0.052945416 -0.020824112 0.06355003 -0.045436267
-0.016595714 -0.028551599 0.0025492178 -0.03440663 0.02821651 -0.008003631 -0.0008663144 0.025245983
00000000: 0509 8ebd 1f4a 8f3d 25c6 72bc 4c3e 0d3d
00000010: c89c b93d 516e d73c f368 49bd 44e3 463d
00000020: 0b81 ad3d 559f f0bd fac9 f23d 5089 a1bd
00000030: 59f6 afbc 1fc1 6abd 886b 8b3c e1b4 c73d
00000040: fd62 6bbd 4bb1 afbd 660b 203d db03 adbd
00000050: b049 303d ed5c aebd 7cda a63d c70c c43d
00000060: dc9a c33d acd9 87bd 0471 9cbd f985 583d
00000070: eadd e5bc a11b 33bc a1e5 47bd 13fe afbd
00000080: 82d3 2fbc a055 36bc a4ca 8d3c d50e dc3c
00000090: 862c a83c fbd6 a1bc 9737 30bb 9289 c63c
000000a0: de05 b2bb a557 86bc ca64 c13c e25d a2bc
000000b0: d4c9 aebc 9b45 0e3c 861b 2dbc 0b0f b03c
000000c0: 78cf b43d c083 6dbc d585 6d3c f2b2 08bd
000000d0: 1cb1 d9bc 5fa8 7ebd 11f8 75bb 14a0 4dbd
000000e0: 9332 f1bc 75fc 263d e564 543d 41f2 9bbd
000000f0: 0fce 5b3d 5e57 64bd f076 1ebd 3e37 c03d
00000100: 44eb 20bc 9afb 96bc bd2d 6cbd c341 313b
00000110: 6ce0 e93c 2c91 673c 63cb 1cbd 0f1c 2b3d
00000120: 96d6 e2bc f1e6 7ebd 8aae 283d 1270 debd
00000130: f82e 5a3d 972a 3bbd 86db a7bd 6edc c13d
00000140: b104 153c 7da2 1f3c 34b0 cebb 5433 25bc
00000150: 2cad 11bb dd86 1938 14ae 06bb eb50 04bc
00000160: 7ae1 cebc b2d5 813d aecd 49bd 9b22 563d
00000170: 7313 37bb 7eec 2ebb cae7 533d 0758 8cbd
00000180: eab5 863b fc8d 5abd d24c c0bc 0fae 963d
00000190: ae49 a7bd d68c 9c3d 62c9 9b3c 18b7 2abd
000001a0: 3bb5 0cbd a6fb 433d 9bdf ba3d b298 87bd
000001b0: c2ed 473d aa28 2bbd 2647 56bd c13a 9f3d
000001c0: f343 0ebd c74d 333d 523e feb9 1b0b 53bc
000001d0: 0193 ca3c 2bc3 c1bc 768b eb3c ff2a ce3c
000001e0: f4e8 5b3c 808e 88bc d94b 1d3c b023 ce3c
000001f0: 4bdd 58bd 5497 aabc 8526 823d 611b 3abd
00000200: bcf3 87bc 0be5 e9bc c710 273b f7ed 0cbd
00000210: 4f26 e73c a921 03bc 6019 63ba aad0 ce3c

weight f4 [7]
1.0577464 0.94253224 0.9688021 0.9689329 0.9942117 0.9172847 1.0038412
00000000: 3c64 873f cb49 713f 6a03 783f fd0b 783f
00000010: a884 7e3f 2cd3 6a3f de7d 803f

bias f4 [7]
-0.044639688 -0.024649639 0.015940601 -0.001927298 -0.028458104 -0.011335945 0.012486426
00000000: 1bd8 36bd 0aee c9bc dd95 823c 649d fcba
00000010: f820 e9bc 66ba 39bc de93 4c3c

running_mean f4 [7]
-0.007699697 -0.014914212 -0.0011113362 0.004746008 0.004197427 0.0002486243 0.0056304345
00000000: bd4d fcbb bd5a 74bc 41aa 91ba 6784 9b3b
00000010: 928a 893b ca59 8239 827f b83b

running_var f4 [7]
0.9952005 1.008373 0.996263 0.9958411 1.0609264 1.0052788 0.98346704
00000000: 76c5 7e3f 5e12 813f 180b 7f3f 71ef 7e3f
00000010: 70cc 873f faac 803f 7fc4 7b3f

weight f4 [200, 48]
-0.029486636 0.10654953 -0.09414004 -0.14931959 -0.04621774 -0.019231733 0.044607766 -0.023694737
-0.10782823 -0.026601544 0.011812358 -0.04731971 0.07243407 -0.17497106 -0.11896612 -0.086933345
-0.030347122 0.1293794 0.07137708 -0.08606026 0.0985038 0.027497148 0.01494268 0.13101825
-0.063790075 -0.15906751 0.034721803 -0.005054298 0.13777082 -0.09443666 -0.03695477 0.14970988
0.049903903 -0.15237965 -0.03137504 -0.14370166 -0.06317357 0.11186907 0.04452182 -0.10269643
-0.15581915 -0.090670764 0.08728095 -0.1361016 -0.12204902 -0.093784064 0.059531078 0.09786901
-0.10051696 0.00015357038 0.16429041 -0.081779696 -0.053195626 0.047688838 0.00427051 0.08048112
-0.084076546 0.07792211 0.1830371 -0.12857911 0.023734309 0.11518711 -0.109232 0.039350636
0.009120422 -0.18534349 0.110821314 0.09633908 0.06480135 -0.16414699 -0.16067004 0.08278638
0.0008308684 -0.22596861 -0.17369193 -0.16772264 -0.1070751 -0.13890025 0.054280158 -0.02365305
0.052338272 0.14125323 -0.024086937 -0.08938877 0.005669642 0.06505572 0.11208459 -0.18347056
0.1770732 0.15228707 -0.1270514 0.007506946 0.100709796 -0.107744 0.06394538 0.029725943
-0.016842073 0.10507389 0.13739921 0.06595158 -0.058226496 0.13224006 -0.072249 -0.10716947
-0.06820702 0.017128771 0.12987195 0.04648371 0.10838 0.14148429 -0.10672539 0.0064205574
0.027877212 -0.04490086 0.14029066 0.013870329 -0.010718085 0.06614999 -0.1084245 -0.030732956
0.056678582 0.05416925 -0.041555762 0.02124783 -0.115426496 -0.22588424 0.034868803 0.018893545
0.14987916 -0.12574391 -0.002135029 -0.048322644 0.12876865 0.05911321 0.113734476 0.10160776
-0.103297494 -0.06678663 -0.15256669 0.022003422 0.15506908 -0.012564233 0.046221722 -0.10863169
0.084336065 0.06136622 -0.09005797 -0.17720734 0.09765957 0.07151986 -0.084701866 0.018170146
-0.107235745 -0.05319666 -0.14309874 0.05056075 -0.089488514 -0.10980516 -0.072256655 -0.04060819
-0.06686982 -0.22445033 0.2138203 0.17292845 -0.15049055 -0.11973867 -0.021484165 -0.09407908
0.047688197 0.011117598 -0.14906879 0.019035708 0.017157959 0.098149404 -0.12358446 -0.07688496
0.067496985 -0.16579369 0.008322881 0.107174605 -0.080216475 0.13066003 0.17090029 0.103583455
0.029292755 0.14469409 -0.013411736 -0.062382154 0.031535473 0.0014188845 0.051506504 0.17439802
-0.13264449 0.030761538 -0.0019934946 0.041464854 0.08161569 -0.04272811 -0.08548988 0.08760059
-0.14656615 0.112824894 -0.086252056 -0.0037779778 -0.05015306 0.058707662 0.006773636 0.12107388
-0.018572323 0.02698767 0.121818945 -0.10969771 0.009121187 -0.11265086 0.16113213 0.13648154
-0.03708281 -0.13052803 -0.1464408 0.10506642 0.031011384 0.035721667 0.047167175 0.178297
0.1290817 -0.10318687 0.032019425 -0.103668444 0.13334504 -0.04870499 0.03911594 -0.08403106
-0.15704615 0.035472605 0.03641711 -0.01081825 0.12735328 -0.076169245 -0.0066503785 -0.09850359
-0.030495906 -0.1143309 0.05597442 0.080657706 0.107177876 -0.021565119 0.10194998 -0.12224266
-0.15248762 0.104754746 0.088774376 -0.21493454 -0.15442647 -0.13350946 -0.202666 0.089179784
00000000: f58d f1bc a436 da3d 7ecc c0bd 3ce7 18be
00000010: d04e 3dbd de8b 9dbc a2b6 363d 771b c2bc
00000020: 0cd5 dcbd 7beb d9bc 9f88 413c 50d2 41bd
00000030: 5058 943d 9d2b 33be 82a4 f3bd 1c0a b2bd
00000040: 879a f8bc 097c 043e 262e 923d 5d40 b0bd
00000050: 5cbc c93d b341 e13c 24d2 743c a629 063e
00000060: 5fa4 82bd 98e2 22be 7338 0e3d 869e a5bb
00000070: cb13 0d3e 0268 c1bd e35d 17bd 8c4d 193e
00000080: 0968 4c3d 6909 1cbe 1d83 00bd 8726 13be
00000090: 2561 81bd 9c1b e53d 835c 363d 8252 d2bd
000000a0: 0e8f 1fbe 98b1 b9bd 5bc0 b23d 385e 0bbe
000000b0: d6f4 f9bd dc11 c0bd dcd6 733d 8c6f c83d
000000c0: d6db cdbd bc07 2139 bf3b 283e 1d7c a7bd
000000d0: a8e3 59bd 5f55 433d a2ef 8b3b 49d3 a43d
000000e0: 5330 acbd a195 9f3d 146e 3b3e 3eaa 03be
000000f0: 746e c23c 38e7 eb3d 07b5 dfbd 222e 213d
00000100: d36d 153c afca 3dbe 49f6 e23d 6c4d c53d
00000110: 92b6 843d 2616 28be b086 24be e88b a93d
00000120: a2ce 593a 5164 67be 4cdc 31be 7cbf 2bbe
00000130: 314a dbbd de3b 0ebe df54 5e3d 0bc4 c1bc
00000140: a860 563d b0a4 103e f851 c5bc 7611 b7bd
00000150: 67c8 b93b ef3b 853d 9b8c e53d b5df 3bbe
00000160: ad52 353e 24f1 1b3e c319 02be d4fc f53b
00000170: f040 ce3d e3a8 dcbd ccf5 823d d283 f33c
00000180: 63f8 89bc fb30 d73d 61b2 0c3e 9f11 873d
00000190: e87e 6ebd f069 073e 49f7 93bd ab7b dbbd
000001a0: 1fb0 8bbd a351 8c3c 27fd 043e b465 3e3d
000001b0: 55f6 dd3d 42e1 103e d792 dabd 8a63 d23b
000001c0: c05e e43c f7e9 37bd 5ba8 0f3e 6040 633c
000001d0: e89a 2fbc a579 873d aa0d debd aec3 fbbc
000001e0: cd27 683d 93e0 5d3d 6036 2abd ee0f ae3c
000001f0: ba64 ecbd 334e 67be 97d2 0e3d a3c6 9a3c
00000200: ec79 193e 03c3 00be d8eb 0bbb f7ed 45bd
00000210: eedb 033e b120 723d 9fed e83d bb17 d03d
00000220: a38d d3bd 6ec7 88bd 713a 1cbe 8540 b43c
00000230: 6eca 1e3e 36da 4dbc fd52 3d3d 4b7a debd
00000240: 63b8 ac3d 255b 7b3d 5070 b8bd d775 35be
00000250: be01 c83d 0179 923d 2c78 adbd 8fd9 943c
00000260: 6a9e dbbd bee4 59bd 7a88 12be ca18 4f3d
00000270: c145 b7bd 87e1 e0bd 4cfb 93bd c654 26bd
00000280: 0bf3 88bd 4fd6 65be b5f3 5a3e 2814 313e
00000290: 321a 1abe 8c39 f5bd 8fff afbc 88ac c0bd
000002a0: b354 433d 9626 363c 7da5 18be c6f0 9b3c
000002b0: d98e 8c3c 8e02 c93d d919 fdbd dd75 9dbd
000002c0: dc3b 8a3d d2c5 29be b15c 083c 5c7e db3d
000002d0: 8948 a4bd becb 053e 7c00 2f3e 9023 d43d
000002e0: 5cf7 ef3c b02a 143e e6bc 5bbc 6e84 7fbd
000002f0: 572b 013d ddf9 b93a 7cf8 523d 6595 323e
00000300: f5d3 07be 9fff fb3c 4aa5 02bb 0dd7 293d
00000310: 2026 a73d ac03 2fbd 5115 afbd f067 b33d
00000320: 7015 16be bd10 e73d eba4 b0bd f397 77bb
00000330: 4c6d 4dbd 7277 703d 61f5 dd3b 95f5 f73d
00000340: fc24 98bc 3f15 dd3c 367c f93d 31a9 e0bd
00000350: 0871 153c 7eb5 e6bd d2ff 243e d1c1 0b3e
00000360: 25e4 17bd 24a9 05be 94f4 15be 102d d73d
00000370: 960b fe3c e250 123d 5e32 413d 7d93 363e
00000380: fe2d 043e a353 d3bd cd26 033d 1f50 d4bd
00000390: 9a8b 083e e27e 47bd 0938 203d 7a18 acbd
000003a0: b5d0 20be b94b 113d 1c2a 153d 073f 31bc
000003b0: e668 023e 9ffe 9bbd 6beb d9bb 40bc c9bd
000003c0: 8dd2 f9bc 5226 eabd 6f45 653d de2f a53d
000003d0: 1380 db3d 55a9 b0bc 27cb d03d 5c5a fabd
000003e0: b725 1cbe a889 d63d 57cf b53d cd17 5cbe
000003f0: f921 1ebe b4b6 08be ad87 4fbe e4a3 b63d

weight f4 [200]
0.9745946 0.9971039 0.9669596 1.0231903 1.0209132 1.0245042 1.0331461 0.99961454
0.99793166 1.0003914 1.0300707 1.0180758 0.9931322 0.99343467 0.9823468 1.0109186
1.0085028 0.98194623 0.9564754 0.9774713 0.9550775 0.9778958 0.9871813 0.95313674
1.0469023 1.0632373 1.0054569 1.00891 1.0119207 1.0239159 0.9868749 1.0351639
0.999317 1.003722 1.044861 0.9726437 0.98212886 1.0013797 0.9925713 0.9805915
1.029743 0.98440176 0.98920846 1.0007508 0.9955529 0.97567236 0.98170453 1.034082
0.9868762 1.0172626 1.0135458 0.9719994 1.0088995 1.0186553 1.062086 1.0199847
1.0448424 0.98300576 0.9721574 1.0551736 0.9710411 0.9319148 1.0104316 1.016341
0.989933 1.0270822 0.98188895 0.96646214 1.0070983 0.97893703 0.99201596 0.97604036
0.9847369 0.98690635 0.9813416 1.0251904 1.0013797 0.9995544 1.0092227 1.0026287
0.99165606 1.0566753 0.99867225 1.0011 0.9912282 0.97264737 1.005199 0.9964149
0.9806215 0.9956832 0.990798 0.9934501 1.0334697 0.98091406 1.0083 1.0499685
1.0094112 1.0113399 1.0129803 0.9929725 1.0149299 0.981633 1.0097007 0.9861522
1.0361706 1.0261228 1.0121452 1.0449015 0.992818 1.0044235 0.9924762 0.9947519
1.0024877 0.9626744 1.0312138 1.0100855 0.99760085 1.0072274 0.9884191 0.966239
0.98750395 1.0137199 0.9746688 1.0149431 0.99310464 0.97877103 1.0018108 0.9431293
0.9882903 1.0202838 0.9607919 1.016976 1.0075792 0.9908217 1.0210673 1.0293533
0.9605339 0.9882198 1.0042801 0.99111545 1.0091231 1.0139818 1.0005165 0.9919623
0.9952792 1.0158894 0.9547776 0.9572621 0.9931016 1.0053236 0.9465585 1.0197779
0.9885213 1.010641 1.0114545 0.9717622 1.0377053 1.0191133 1.0206089 0.98547775
1.0640855 1.010022 0.98134804 1.0016748 0.95307773 1.0336449 0.9926001 0.991104
0.9832977 0.9861588 0.9760467 0.9738072 1.0011046 0.98290414 1.0118724 1.0029762
1.033717 0.9791305 0.9974237 0.951906 1.0168442 1.0044657 1.0252656 1.001987
1.0021108 1.0058517 1.0011996 1.0133154 0.9894128 0.9997505 1.0371311 1.0098842
0.9993048 1.0374703 0.99479544 1.0150657 1.0014952 1.0159094 1.0471236 1.0102757
00000000: 087f 793f 3442 7f3f aa8a 773f e6f7 823f
00000010: 49ad 823f f422 833f 223e 843f bde6 7f3f
00000020: 7378 7f3f d30c 803f 5bd9 833f 4f50 823f
00000030: e93d 7e3f bc51 7e3f 147b 7b3f c865 813f
00000040: 9f16 813f d460 7b3f 92db 743f 8f3b 7a3f
00000050: f67f 743f 6157 7a3f eab7 7c3f c500 743f
00000060: e500 863f 2918 883f d0b2 803f f623 813f
00000070: 9e86 813f ad0f 833f d5a3 7c3f 4080 843f
00000080: 3dd3 7f3f f679 803f 01be 853f 2dff 783f
00000090: cc6c 7b3f 362d 803f 2719 7e3f 0b08 7b3f
000000a0: 9ece 833f c101 7c3f c43c 7d3f 9a18 803f
000000b0: 8edc 7e3f aac5 793f fd50 7b3f cd5c 843f
000000c0: eba3 7c3f a935 823f debb 813f f4d4 783f
000000d0: 9e23 813f 4c63 823f 6ff2 873f dc8e 823f
000000e0: 65bd 853f 44a6 7b3f 4fdf 783f ee0f 873f
000000f0: 2696 783f f891 6e3f d355 813f 7617 823f
00000100: 406c 7d3f 6e77 833f 135d 7b3f 106a 773f
00000110: 99e8 803f 9e9b 7a3f c2f4 7d3f c8dd 793f
00000120: b817 7c3f e5a5 7c3f 3439 7b3f 7039 833f
00000130: 362d 803f cce2 7f3f 362e 813f 2356 803f
00000140: 2cdd 7d3f 2341 873f fca8 7f3f 0b24 803f
00000150: 22c1 7d3f 6bff 783f 5caa 803f 0c15 7f3f
00000160: 030a 7b3f 18e5 7e3f f0a4 7d3f bf52 7e3f
00000170: bc48 843f 2f1d 7b3f f90f 813f 5e65 863f
00000180: 6334 813f 9673 813f 57a9 813f 7233 7e3f
00000190: 39e9 813f 4d4c 7b3f df3d 813f 7874 7c3f
000001a0: 3da1 843f fe57 833f f98d 813f 55bf 853f
000001b0: 5229 7e3f f390 803f ec12 7e3f 0fa8 7e3f
000001c0: 8451 803f d471 763f d0fe 833f 7b4a 813f
000001d0: c562 7f3f d4ec 803f 0909 7d3f 705b 773f
000001e0: 0fcd 7c3f 93c1 813f e583 793f a8e9 813f
000001f0: 1b3c 7e3f bd90 7a3f 563b 803f ec70 713f
00000200: 9800 7d3f a998 823f 75f6 753f 452c 823f
00000210: 5bf8 803f 7ea6 7d3f 55b2 823f d9c1 833f
00000220: 8de5 753f f9fb 7c3f 408c 803f beb9 7d3f
00000230: f22a 813f 28ca 813f ed10 803f 3ef1 7d3f
00000240: 9eca 7e3f aa08 823f 4e6c 743f 210f 753f
00000250: e83b 7e3f 72ae 803f a851 723f 1588 823f
00000260: bb0f 7d3f af5c 813f 5777 813f 68c5 783f
00000270: 87d3 843f 4e72 823f 50a3 823f 4548 7c3f
00000280: f433 883f 6748 813f a039 7b3f e136 803f
00000290: e7fc 733f 7a4e 843f 0a1b 7e3f feb8 7d3f
000002a0: 66b9 7b3f e774 7c3f 32de 793f 6e4b 793f
000002b0: 3224 803f 9b9f 7b3f 0985 813f 8661 803f
000002c0: d750 843f 4ca8 7a3f 2957 7f3f 1db0 733f
000002d0: f327 823f 5592 803f e73b 833f 1c41 803f
000002e0: 2b45 803f c0bf 803f 4f27 803f 52b4 813f
000002f0: 284a 7d3f a6ef 7f3f b6c0 843f e343 813f
00000300: 70d2 7f3f d4cb 843f eaaa 7e3f aced 813f
00000310: ff30 803f 5209 823f 2508 863f b750 813f

bias f4 [200]
-0.023201356 0.050050393 0.04039274 -0.026232975 0.025676575 0.009607248 0.041607417 -0.010100161
-0.012102864 0.030917695 -0.01919757 -0.03286849 -0.054162025 0.005932162 0.0010515368 -0.05278244
0.049925912 -0.0061653713 0.025023911 -0.010153959 -0.02187929 0.026340038 -0.0212904 0.025811419
0.048239656 0.005742954 0.011474135 0.002896088 -0.012617242 0.040118724 0.0006533524 -0.00056676555
-0.010006917 0.04190856 -0.027233936 -0.05050713 -0.04343545 0.0018983585 -0.012940275 -0.040092688
-0.005214345 0.022493334 -0.017175494 0.017969975 0.038554184 0.036833018 0.052561462 0.010066585
-0.014338322 -0.027931284 0.06126257 0.025349466 0.017885478 -0.018170416 -0.050369527 -0.041548606
-0.029175134 0.013932253 -0.007145758 0.019498944 0.057078935 0.019829609 -0.05094521 -0.018218296
-0.021377396 -0.05884111 0.01765887 -0.044033516 0.057601385 -0.02082109 0.0147934 -0.007976007
0.053913943 -0.019872388 0.03273434 -0.008472228 0.025154408 0.0019320627 0.016298525 0.025776593
-0.00040414796 0.03159445 0.03979799 -0.03287926 0.0006453203 -0.029788258 0.01644501 -0.008318362
0.0027196656 -0.02108949 -0.03805037 0.0074335076 -0.06631043 0.031849224 -0.04678472 -0.0016177333
-0.009902342 0.007434875 -0.03405306 -0.017364627 0.02385484 0.055194072 -0.0053513343 0.016357478
-0.05024588 0.03950771 -0.0397294 -0.009180238 -0.05084921 0.073346406 -0.0023847574 -0.013917281
-0.06094216 0.013776651 -0.028565701 0.037117902 -0.029615007 0.027236646 0.015663516 -0.024039168
0.004153552 -0.04622045 -0.030864269 -0.004075791 -0.009009099 -0.007889005 0.008346077 0.041276798
0.041485466 -0.02962256 0.010845277 0.032285582 -0.03342779 0.011368537 0.018563507 -0.037475828
0.0004005464 -0.0046570874 -0.07627655 0.0073172003 -0.043986373 -0.03435707 -0.0045344676 -0.04925904
0.050944332 -0.032333218 -0.019702584 0.041388296 -0.029461248 -0.041421358 -0.012459737 0.041626986
-0.033045825 0.0064718556 -0.0005886343 -0.026682671 -0.008956582 0.030163776 -0.02801082 -0.031056045
0.06946331 -0.002136823 0.0642106 -0.03700713 0.027036369 -0.05584743 0.0033454767 0.043292604
0.012814944 0.035208818 0.032988578 0.03103266 0.02394691 0.036955383 0.025677666 0.043012243
-0.028197264 0.0051653706 -0.0107989 0.023069896 0.035937484 -0.004374338 0.106620334 -0.018759001
-0.02090271 -0.017743733 0.03070385 -0.045462098 -0.035560895 -0.028229201 -0.034482412 0.00920862
0.038181905 -0.04306971 0.038542747 0.0072971582 0.021050345 0.08454625 0.056161113 0.034535855
00000000: c510 bebc a401 4d3d dc72 253d 89e6 d6bc
00000010: ae57 d23c b867 1d3c 8a6c 2a3d 257b 25bc
00000020: 174b 46bc 1b47 fd3c 3944 9dbc 1ca1 06bd
00000030: 00d9 5dbd 9562 c23b b8d3 893a 6632 58bd
00000040: 1d7f 4c3d e206 cabb f2fe cc3c ca5c 26bc
00000050: 323c b3bc 10c7 d73c 3469 aebc 7872 d33c
00000060: f296 453d 642f bc3b 03fe 3b3c 4bcc 3d3b
00000070: 8cb8 4ebc 8853 243d bd45 2b3a fe92 14ba
00000080: 0df4 23bc 4fa8 2b3d b419 dfbc 90e0 4ebd
00000090: 5fe9 31bd 57d2 f83a 7203 54bc 3b38 24bd
000000a0: 19dd aabb f143 b83c 9fb3 8cbc c535 933c
000000b0: feea 1d3d 38de 163d b04a 573d 51ee 243c
000000c0: 48eb 6abc 26d0 e4bc 76ee 7a3d afa9 cf3c
000000d0: 9184 923c 20da 94bc 4750 4ebd df2e 2abd
000000e0: b100 efbc 1b44 643c f626 eabb 40bc 9f3c
000000f0: 9acb 693d b471 a23c edab 50bd 893e 95bc
00000100: a61f afbc 6003 71bd 56a9 903c 7d5c 34bd
00000110: 6eef 6b3d fe90 aabc 0460 723c ccad 02bc
00000120: ded4 5c3d 6bcb a2bc 7114 063d 1acf 0abc
00000130: 9e10 ce3c 443d fd3a 7c84 853c 6f29 d33c
00000140: d2e3 d3b9 2f69 013d 3803 233d 67ac 06bd
00000150: b62a 293a 8106 f4bc b0b7 863c bd49 08bc
00000160: 6b3c 323b dec3 acbc b4da 1bbd c894 f33b
00000170: c3cd 87bd 5574 023d 56a1 3fbd 1f0a d4ba
00000180: 6f3d 22bc 40a0 f33b 397b 0bbd 4340 8ebc
00000190: 3a6b c33c 2e13 623d 3f5a afbb 1e00 863c
000001a0: a0ce 4dbd d6d2 213d 4cbb 22bd b568 16bc
000001b0: 4347 50bd a436 963d 9749 1cbb 4f05 64bc
000001c0: 7d9e 79bd 76b7 613c 9e02 eabc f108 183d
000001d0: 2c9b f2bc 631f df3c c650 803c caed c4bc
000001e0: 851a 883b a851 3dbd 10d7 fcbc 378e 85bb
000001f0: e69a 13bc e340 01bc fcbd 083c dc11 293d
00000200: aaec 293d 03ab f2bc 64b0 313c e33d 043d
00000210: 94eb 08bd 1a43 3a3c 7f12 983c 4180 19bd
00000220: 6e00 d239 7b9a 98bb e136 9cbd 20c5 ef3b
00000230: 0e2b 34bd 00ba 0cbd df95 94bb d9c3 49bd
00000240: 01ab 503d d66f 04bd 5067 a1bc c686 293d
00000250: b758 f1bc 71a9 29bd ed23 4cbc 0f81 2a3d
00000260: 0f5b 07bd dc11 d43b 944e 1aba 9e95 dabc
00000270: a1be 12bc 061a f73c f276 e5bc 3f69 febc
00000280: c842 8e3d f109 0cbb d980 833d ca94 17bd
00000290: 607b dd3c 46c0 64bd c93f 5b3b 9653 313d
000002a0: c5f5 513c 1f37 103d 081f 073d 3438 fe3c
000002b0: 4f2c c43c 875e 173d f859 d23c 9b2d 303d
000002c0: f3fd e6bc 4542 a93b dfed 30bc 14fd bc3c
000002d0: 2f33 133d 9b56 8fbb c35b da3d 7aac 99bc
000002e0: 293c abbc 4e5b 91bc a486 fb3c 7736 3abd
000002f0: 4da8 11bd ed40 e7bc 6e3d 0dbd c0df 163c
00000300: a164 1c3d dd69 30bd 00df 1d3d 001d ef3b
00000310: c671 ac3c 9626 ad3d 3209 663d 7875 0d3d

running_mean f4 [200]
0.09092948 0.08389768 0.08750298 0.07593151 0.06775617 0.060868457 0.07356247 0.07090131
0.071397014 0.09125329 0.0780516 0.07622669 0.087944545 0.086403504 0.106753066 0.07348323
0.068995945 0.058658972 0.0821081 0.07274839 0.07334353 0.0696626 0.06008835 0.06780324
0.07312668 0.08537061 0.05007987 0.08367121 0.08747956 0.09510483 0.08080375 0.054767407
0.0515983 0.073452674 0.08216888 0.052649844 0.036211696 0.081453346 0.06433583 0.08148498
0.06165264 0.07828811 0.08980403 0.07953895 0.07310144 0.068533026 0.06688165 0.0773433
0.06674271 0.073628694 0.08493176 0.0791827 0.07822644 0.050355986 0.06636721 0.060388956
0.073921524 0.0841622 0.08003248 0.06562029 0.09294536 0.062133215 0.09685392 0.105033115
0.058605272 0.094426066 0.06857883 0.0746622 0.09129233 0.076663986 0.08717671 0.06636244
0.068031035 0.0746544 0.08129367 0.08477124 0.09076266 0.07699298 0.08967869 0.075402826
0.09143442 0.059455127 0.109475754 0.063931935 0.07869785 0.07955988 0.0636014 0.073290944
0.06519256 0.08585556 0.11335869 0.09282059 0.10397777 0.11330218 0.05844225 0.08659173
0.0655598 0.07337393 0.09337137 0.07975214 0.121013775 0.07919261 0.11126485 0.053117644
0.05871941 0.08488938 0.049228966 0.08762365 0.085638024 0.09019589 0.104303166 0.06469552
0.115409166 0.09436199 0.06870526 0.09642324 0.08632646 0.097647116 0.08953371 0.0538112
0.063942224 0.076998614 0.068860404 0.07003582 0.07115203 0.08225469 0.08059975 0.08180255
0.0495951 0.07019005 0.08356408 0.07726288 0.074769415 0.07175205 0.089949094 0.06548988
0.079573885 0.07979499 0.07295565 0.058688477 0.10321365 0.09645167 0.044859406 0.07722589
0.069895506 0.059155565 0.08556208 0.09978601 0.08976645 0.10834329 0.0975703 0.08949529
0.08156168 0.0965038 0.06955071 0.069451846 0.042104423 0.046525672 0.107527785 0.07539918
0.09202408 0.08295691 0.07231984 0.059379105 0.099168144 0.04873989 0.065382294 0.103019506
0.06167499 0.089534886 0.074394874 0.09362138 0.07566294 0.057562333 0.07424405 0.09285625
0.09285138 0.072277755 0.103198044 0.08537333 0.093156375 0.0533862 0.10004428 0.09268895
0.08693364 0.069699064 0.09205653 0.08916582 0.06404225 0.06332858 0.056066964 0.082811944
0.073748805 0.05501616 0.079184495 0.0687813 0.048830118 0.062036633 0.07968287 0.06989699
00000000: 3c39 ba3d 8cd2 ab3d c334 b33d fb81 9b3d
00000010: bfc3 8a3d 3451 793d eca7 963d b534 913d
00000020: 9938 923d 01e3 ba3d 84d9 9f3d bd1c 9c3d
00000030: 451c b43d 52f4 b03d 5aa1 da3d 607e 963d
00000040: bf4d 8d3d 6444 703d 4b28 a83d 1cfd 943d
00000050: 2235 963d 44ab 8e3d 341f 763d 6ddc 8a3d
00000060: 71c3 953d c9d6 ae3d 8d20 4d3d d05b ab3d
00000070: 7c28 b33d 52c6 c23d 707c a53d ca53 603d
00000080: bd58 533d 5b6e 963d 2848 a83d 5da7 573d
00000090: b752 143d 03d1 a63d 81c2 833d 99e1 a63d
000000a0: 7b87 7c3d 8455 a03d 2deb b73d 51e5 a23d
000000b0: 35b6 953d 0b5b 8c3d 3ff9 883d 2a66 9e3d
000000c0: 67b0 883d a4ca 963d b4f0 ad3d 8a2a a23d
000000d0: 2f35 a03d 1442 4e3d 88eb 873d 695a 773d
000000e0: 2b64 973d 3b5d ac3d 12e8 a33d ee63 863d
000000f0: 235a be3d 667f 7e3d 595b c63d 9a1b d73d
00000100: 150c 703d 7462 c13d 0f73 8c3d 7fe8 983d
00000110: 79f7 ba3d 0202 9d3d b489 b23d 08e9 873d
00000120: db53 8b3d 68e4 983d 4c7d a63d 8b9c ad3d
00000130: c6e1 b93d 7fae 9d3d 76a9 b73d cc6c 9a3d
00000140: f841 bb3d 3887 733d d334 e03d bfee 823d
00000150: 572c a13d 4af0 a23d 7341 823d 9019 963d
00000160: ad83 853d 0ad5 af3d 9a28 e83d b918 be3d
00000170: 4cf2 d43d f90a e83d 2461 6f3d 0157 b13d
00000180: 3744 863d 1245 963d 7d39 bf3d 1755 a33d
00000190: 12d6 f73d bc2f a23d d3de e33d e391 593d
000001a0: c483 703d 7cda ad3d 50a4 493d 0774 b33d
000001b0: fd62 af3d 9fb8 b83d e69c d53d 167f 843d
000001c0: a45b ec3d dc40 c13d 58b5 8c3d 8c79 c53d
000001d0: edcb b03d 36fb c73d 735d b73d 2269 5c3d
000001e0: 24f4 823d 73b1 9d3d af06 8d3d f16e 8f3d
000001f0: 28b8 913d 2675 a83d 7b11 a53d 1888 a73d
00000200: 3b24 4b3d cdbf 8f3d a523 ab3d 003c 9e3d
00000210: b520 993d bdf2 923d 3b37 b83d 8f1f 863d
00000220: a2f7 a23d 8e6b a33d c669 953d 5463 703d
00000230: ae61 d33d 7488 c53d 7fbe 373d 9b28 9e3d
00000240: 6025 8f3d 1b4d 723d 2c3b af3d 9c5c cc3d
00000250: 79d7 b73d 16e3 dd3d f0d2 c73d 4e49 b73d
00000260: cf09 a73d c9a3 c53d 9a70 8e3d c53c 8e3d
00000270: b075 2c3d b491 3e3d 8737 dc3d e36a 9a3d
00000280: 1f77 bc3d 50e5 a93d 6d1c 943d 8137 733d
00000290: ab18 cb3d 7ba3 473d 27e7 853d e4fb d23d
000002a0: ea9e 7c3d 115e b73d 575c 983d 91bc bf3d
000002b0: 2cf5 9a3d 7bc6 6b3d 440d 983d 6b2b be3d
000002c0: dd28 be3d 5c06 943d 7f59 d33d 36d8 ae3d
000002d0: c5c8 be3d 7dab 5a3d 04e4 cc3d b4d3 bd3d
000002e0: 440a b23d 62be 8e3d 2288 bc3d 929c b63d
000002f0: 9528 833d 6ab2 813d 79a6 653d 4f99 a93d
00000300: 9d09 973d a058 613d 7b2b a23d 36dd 8c3d
00000310: 1702 483d 201a 7e3d c630 a33d 2726 8f3d

running_var f4 [200]
0.105087325 0.104431614 0.1039591 0.10778048 0.095372275 0.101111226 0.099604554 0.10895687
0.10118082 0.108033314 0.12323515 0.10337435 0.118583895 0.11683036 0.10602566 0.09870634
0.10016043 0.10608026 0.101863466 0.10713152 0.10575454 0.10249421 0.10089922 0.09810085
0.1038964 0.10348378 0.09730904 0.11780243 0.10524453 0.107064456 0.10578087 0.09651156
0.09437179 0.10350898 0.10641986 0.10307836 0.093426436 0.10302144 0.10068814 0.10347543
0.104304284 0.10138586 0.11067189 0.10148132 0.104480244 0.10122826 0.10226906 0.10166737
0.1086949 0.10599791 0.098975584 0.112088166 0.12104763 0.09560685 0.10971901 0.10224023
0.11864625 0.104209624 0.111977756 0.096602246 0.10474241 0.09585953 0.10821852 0.100683115
0.094548255 0.12183197 0.099124596 0.11435531 0.10781858 0.10335832 0.1023732 0.10089304
0.10021973 0.10233983 0.10603244 0.10813674 0.10745317 0.10689227 0.103366315 0.10261489
0.11279899 0.09946877 0.117474265 0.10152764 0.10224248 0.11768103 0.09524005 0.10071948
0.10254946 0.109868 0.11573755 0.11506639 0.13692755 0.11228838 0.096443586 0.103871696
0.09575121 0.09880484 0.12322688 0.11338542 0.12342274 0.107799985 0.11822083 0.10053967
0.09859732 0.101428054 0.102467544 0.11902921 0.11537844 0.10611665 0.11312778 0.10270601
0.112378836 0.11482213 0.107694 0.11412058 0.105393045 0.10922909 0.11469413 0.10619229
0.09991663 0.103805326 0.10597825 0.10271042 0.09744917 0.107004225 0.10082874 0.106749095
0.09569431 0.10306921 0.111901164 0.10235677 0.0977599 0.10873355 0.10827933 0.10122657
0.10370054 0.10311062 0.12316624 0.09452519 0.117693715 0.12497584 0.09572863 0.10141117
0.10018588 0.097643785 0.104446016 0.10594594 0.11052287 0.12710121 0.11672432 0.10156381
0.105002165 0.12547651 0.09929367 0.09746334 0.10577617 0.098044366 0.11972173 0.109503224
0.105987586 0.105171315 0.10175484 0.10701674 0.10439134 0.10630334 0.11204334 0.10888939
0.10424831 0.111566916 0.10606036 0.103046566 0.1028423 0.09780526 0.10606818 0.1020052
0.117529035 0.10042003 0.10912786 0.11003598 0.10475915 0.09698512 0.106428325 0.118962385
0.10961019 0.10030878 0.10259203 0.112155855 0.10842333 0.09789678 0.100241974 0.1243654
0.09826645 0.10968508 0.1009173 0.100167096 0.10819641 0.09893006 0.10320821 0.09765874
00000000: 0638 d73d 3ee0 d53d 82e8 d43d 03bc dc3d
00000010: 8a52 c33d 6713 cf3d 79fd cb3d c824 df3d
00000020: e437 cf3d 9240 dd3d b662 fc3d eeb5 d33d
00000030: 1ddc f23d c144 ef3d fb23 d93d 8d26 ca3d
00000040: e920 cd3d 9b40 d93d cb9d d03d c567 db3d
00000050: d695 d83d 7ce8 d13d 40a4 ce3d 19e9 c83d
00000060: a3c7 d43d 4eef d33d f649 c73d 6742 f13d
00000070: 728a d73d 9c44 db3d a4a3 d83d daa7 c53d
00000080: ff45 c13d 84fc d33d a8f2 d93d bf1a d33d
00000090: 5c56 bf3d e8fc d23d 9535 ce3d edea d33d
000000a0: 7c9d d53d 64a3 cf3d f2a7 e23d 70d5 cf3d
000000b0: bdf9 d53d c350 cf3d 7172 d13d fb36 d03d
000000c0: 6f9b de3d 6f15 d93d b6b3 ca3d 7b8e e53d
000000d0: d2e7 f73d 86cd c33d 5cb4 e03d 5363 d13d
000000e0: cefc f23d db6b d53d 9854 e53d 66d7 c53d
000000f0: 3083 d63d 0052 c43d aca1 dd3d f332 ce3d
00000100: 84a2 c13d 0a83 f93d d601 cb3d 1e33 ea3d
00000110: fdcf dc3d 87ad d33d 0aa9 d13d 03a1 ce3d
00000120: 0040 cd3d 8b97 d13d 8927 d93d cc76 dd3d
00000130: 6810 dc3d 56ea da3d b8b1 d33d c127 d23d
00000140: 2803 e73d 48b6 cb3d 5996 f03d b9ed cf3d
00000150: 8164 d13d c002 f13d 370d c33d 0446 ce3d
00000160: 7405 d23d 7902 e13d cf07 ed3d eda7 eb3d
00000170: bc36 0c3e 73f7 e53d 3784 c53d afba d43d
00000180: 3619 c43d 315a ca3d 605e fc3d 9d36 e83d
00000190: 10c5 fc3d 3dc6 dc3d c31d f23d bee7 cd3d
000001a0: 64ed c93d 83b9 cf3d 81da d13d 96c5 f33d
000001b0: 884b ec3d b053 d93d 8aaf e73d 8757 d23d
000001c0: e026 e63d dd27 eb3d ac8e dc3d 0db8 e93d
000001d0: 4fd8 d73d 80b3 df3d c2e4 ea3d 587b d93d
000001e0: 17a1 cc3d e397 d43d 200b d93d d759 d23d
000001f0: 6e93 c73d 0825 db3d 4c7f ce3d 459f da3d
00000200: 61fb c33d f315 d33d 702c e53d 6da0 d13d
00000210: 5836 c83d b2af de3d 8ec1 dd3d e04f cf3d
00000220: f360 d43d a92b d33d 953e fc3d 6c96 c13d
00000230: 6709 f13d 55f3 ff3d 5f0d c43d a9b0 cf3d
00000240: 412e cd3d 77f9 c73d cbe7 d53d 2ffa d83d
00000250: d159 e23d d226 023e 290d ef3d b000 d03d
00000260: 600b d73d ea7c 003e 7b5a cb3d dc9a c73d
00000270: 2da1 d83d 7ccb c83d ab30 f53d 3a43 e03d
00000280: 0510 d93d 0f64 d73d d764 d03d 982b db3d
00000290: 20cb d53d 91b5 d93d fb76 e53d 6701 df3d
000002a0: 2380 d53d 327d e43d 2d36 d93d 140a d33d
000002b0: fc9e d23d 204e c83d 463a d93d 1ae8 d03d
000002c0: 10b3 f03d 04a9 cd3d 6d7e df3d 8b5a e13d
000002d0: f78b d63d 22a0 c63d 18f7 d93d 8da2 f33d
000002e0: 4f7b e03d b16e cd3d c51b d23d f8b1 e53d
000002f0: 0d0d de3d 1b7e c83d aa4b cd3d 49b3 fe3d
00000300: ec3f c93d 92a2 e03d bbad ce3d 6824 cd3d
00000310: 1496 dd3d d89b ca3d d35e d33d 4e01 c83d

weight f4 [100, 200]
0.044109322 0.0053753303 -0.05154972 0.016601538 -0.03875549 -0.03437907 -0.07100285 0.06829785
0.02642872 -0.0447495 0.06607431 0.072827585 -0.03682061 -0.021440957 -0.015099373 -0.013377739
0.031098535 0.08737015 -0.056325227 0.035612844 0.035991 0.049730483 -0.03862471 -0.0030483692
-0.06518077 -0.09946628 0.077525094 0.067143455 -0.08986652 0.01652562 -0.056488853 0.042884193
0.016645191 -0.025636489 0.027180035 0.01338639 0.024924679 -0.030653758 0.021058124 -0.037049014
0.03187638 -0.03096597 0.0008600134 -0.012032798 -0.0036545447 -0.08097063 0.035358626 0.0028673278
-0.009595461 0.01209101 -0.075271174 -0.037931107 0.013076948 0.075254336 0.030365275 -0.022700075
0.08208161 0.00040845526 -0.03316499 -0.010644238 -0.041965153 0.018344443 -0.0027027964 -0.009653569
-0.049538013 0.04070773 0.009397835 0.01053559 0.024096178 -0.032142654 -0.0729833 -0.028845044
-0.02994042 0.03676718 0.019728325 0.03361704 -0.053119287 0.0012272884 0.003241498 -0.06879857
-0.051327597 -0.049561504 -0.01255923 0.07330554 0.021733647 0.03585858 0.026594538 -0.04917379
-0.040564932 -0.02854067 -0.0066038473 -0.014816878 0.019727858 -0.045466773 0.037226506 -0.10019154
-0.039221395 0.036675792 0.07595113 0.04183429 -0.04979025 -0.043901395 0.057765216 0.022809846
-0.027840238 -0.019698929 0.011625655 0.065406434 -0.016312553 0.0011112741 0.044044558 0.0048998753
0.0450444 0.040457472 -0.037041675 0.04130333 -0.009303099 -0.06550224 -0.035602517 0.0779567
0.037139796 0.091837645 0.09123471 0.009011982 -0.053755894 0.061317977 -0.05740146 0.0553494
0.044330765 0.087376595 0.022253916 -0.023458248 -0.03904531 -0.016603423 -0.08492292 0.09115216
-0.042712387 0.016405558 0.0025229503 0.00034929812 -0.04399351 0.027002376 0.097653314 -0.028454144
0.011015521 0.017416073 0.026928676 -0.061071724 -0.009471895 -0.030157933 -0.027726738 -0.07373874
0.021468595 0.07982219 0.022369789 0.017987797 0.016169814 -0.05267136 0.06754706 0.030023828
-0.098601185 0.014544471 0.028165227 0.069608144 0.024712669 0.090139955 0.08295995 -0.03312593
0.027860485 0.023774296 -0.02099957 0.035457045 -0.04156349 0.04757547 0.07324022 0.034056704
0.08891897 0.058907464 -0.07409212 -0.018594457 -0.0725439 0.04033151 -0.065278135 0.082641184
0.035137977 0.053751916 -0.019818455 0.031759553 -0.02741167 -0.053370386 -0.043718368 0.065311566
-0.03929564 0.027820738 0.037448842 0.044556834 0.04797511 -0.055805277 0.023452256 0.056903098
-0.09195296 -0.04688967 -0.043741304 -0.031937312 -0.017387075 -0.09236719 -0.07135118 0.031142555
0.059078597 -0.057931826 0.06843569 -0.05150914 0.0018451572 0.08361256 -0.033285726 0.043206308
-0.06501567 0.05746503 -0.02747026 0.017571066 0.008277563 -0.007383447 0.037359644 -0.013402928
-0.046700265 0.0034660003 -0.0411135 -0.04597927 -0.06777094 0.028358668 0.013703742 -0.065152116
0.05389163 -0.002257986 0.0342342 0.040280726 0.06428994 -0.0100184195 -0.07916707 -0.02060429
0.006923429 -0.011271633 0.006186683 0.08756402 0.003167892 0.07507382 -0.03255202 -0.02070146
-0.014052806 0.036681905 -0.08799444 0.053133395 0.0669174 0.08747684 0.024271796 -0.000846383
00000000: faab 343d 8a23 b03b cd25 53bd f3ff 873c
00000010: 14be 1ebd 11d1 0cbd f169 91bd bedf 8b3d
00000020: 0b81 d83c 404b 37bd f851 873d a126 953d
00000030: 35d1 16bd f2a4 afbc 5c63 77bc 4e2e 5bbc
00000040: 5bc2 fe3c 1fef b23d 48b5 66bd c6de 113d
00000050: 4c6b 133d 31b2 4b3d f234 1ebd 26c7 47bb
00000060: 7f7d 85bd fab4 cbbd 7ac5 9e3d 8282 893d
00000070: f00b b8bd bd60 873c db60 67bd 56a7 2f3d
00000080: 7f5b 883c 9d03 d2bc aaa8 de3c 9752 5b3c
00000090: d72e cc3c 971d fbbc 1682 ac3c b5c0 17bd
000000a0: cf90 023d 59ac fdbc 8672 613a 3625 45bc
000000b0: 1681 6fbb eed3 a5bd 35d4 103d c7e9 3b3b
000000c0: 4836 1dbc 5f19 463c c627 9abd a65d 1bbd
000000d0: b240 563c f21e 9a3d 99c0 f83c 82f5 b9bc
000000e0: 671a a83d f025 d639 03d8 07bd 2c65 2ebc
000000f0: a7e3 2bbd 1647 963c 6621 31bb 012a 1ebc
00000100: 5fe8 4abd 26bd 263d 60f9 193c 789d 2c3c
00000110: 5965 c53c 04a8 03bd 4578 95bd 714c ecbc
00000120: 9d45 f5bc 2f99 163d 4c9d a13c 05b2 093d
00000130: 9c93 59bd f7dc a03a 506f 543b 44e6 8cbd
00000140: e33c 52bd 0101 4bbd 3bc5 4dbc 3721 963d
00000150: c30a b23c 72e0 123d cadc d93c 756a 49bd
00000160: 6a27 26bd 20ce e9bc 1665 d8bb 7ec2 72bc
00000170: 519c a13c 5e3b 3abd d27a 183d 3931 cdbd
00000180: 9da6 20bd 5b39 163d 448c 9b3d 6f5a 2b3d
00000190: dcf0 4bbd f3d1 33bd 389b 6c3d b7db ba3c
000001a0: 3611 e4bc a65f a1bc 8879 3e3c cff3 853d
000001b0: e7a1 85bc 2ca8 913a 1168 343d 228f a03b
000001c0: 7a80 383d bcb6 253d 03b9 17bd ae2d 293d
000001d0: 066c 18bc 0a26 86bd f2d3 11bd c3a7 9f3d
000001e0: e61f 183d 6015 bc3d 43d9 ba3d fea6 133c
000001f0: 242f 5cbd 8f28 7b3d cb1d 6bbd 0db6 623d
00000200: 2d94 353d 80f2 b23d d84d b63c 832b c0bc
00000210: faed 1fbd e703 88bc 11ec adbd fcad ba3d
00000220: 2ff3 2ebd f364 863c 1558 253b 0022 b739
00000230: 8a32 34bd 1634 dd3c 76fe c73d aa18 e9bc
00000240: 727a 343c 27ac 8e3c 8799 dc3c 5826 7abd
00000250: 0230 1bbc c50d f7bc 2f23 e3bc 5604 97bd
00000260: e8de af3c d179 a33d d940 b73c 255b 933c
00000270: 8f76 843c edbd 57bd 1d56 8a3d 88f4 f53c
00000280: 6bef c9bd ef4b 6e3c c3ba e63c b78e 8e3d
00000290: 3972 ca3c 4c9b b83d e8e6 a93d 0eaf 07bd
000002a0: ac3b e43c 50c2 c23c 4a07 acbc 683b 113d
000002b0: 7a3e 2abd 7fde 423d f8fe 953d 0b7f 0b3d
000002c0: 261b b63d f448 713d 9cbd 97bd 6753 98bc
000002d0: e591 94bd a732 253d 8bb0 85bd c83f a93d
000002e0: d7ec 0f3d f82a 5c3d 505a a2bc 4e16 023d
000002f0: 708e e0bc e89a 5abd 0812 33bd 12c2 853d
00000300: 77f4 20bd 51e8 e33c f563 193d 3a81 363d
00000310: 8d81 443d 1394 64bd f21e c03c 3913 693d
00000320: d551 bcbd 620f 40bd 152a 33bd b3d0 02bd
00000330: 576f 8ebc 022b bdbd 9120 92bd ac1e ff3c
00000340: 66fc 713d ec49 6dbd 0328 8c3d 3ffb 52bd
00000350: 34d9 f13a 103d ab3d 9d56 08bd 19f9 303d
00000360: f026 85bd 7460 6b3d 5009 e1bc 32f1 8f3c
00000370: 9e9e 073c d8f0 f1bb 6d06 193d f497 5bbc
00000380: c748 3fbd d625 633b a166 28bd c254 3cbd
00000390: 7ecb 8abd 7050 e83c a985 603c 796e 85bd
000003a0: 78bd 5c3d b8fa 13bb 2939 0c3d 67fd 243d
000003b0: 72aa 833d 4c24 24bc 5822 a2bd 54ca a8bc
000003c0: efdd e23b a8ac 38bc a9b9 ca3b c454 b33d
000003d0: 699c 4f3b 4ec0 993d 4455 05bd 1c96 a9bc
000003e0: be3d 66bc c43f 163d 6e36 b4bd 67a2 593d
000003f0: fd0b 893d 0f27 b33d a5d5 c63c cddf 5dba

weight f4 [100]
1.0313935 1.0452439 0.95986146 0.98750067 1.0195326 0.9726876 1.042131 0.9858025
1.073689 0.951945 0.98791885 1.0445436 0.9825877 1.0351326 0.9733091 0.9932065
0.94442236 0.9605318 1.0536244 0.97794586 1.0509764 1.0227281 1.0002357 0.98468846
0.98238647 1.0505984 0.9934879 1.0163985 0.9981815 0.9834469 0.97001714 1.0163308
0.97348386 0.9892396 0.9790834 1.0098912 0.9751571 0.9972929 0.9854166 0.99159366
1.0064677 0.9848257 0.976865 1.028832 1.043491 0.9943792 0.97707236 1.0460144
1.0268157 0.98239636 0.9696008 0.98162234 1.0024751 1.084674 1.0207419 1.0800906
1.0039595 0.9344964 1.0095091 1.1004137 0.9703329 0.9570638 0.9818451 1.086412
0.9810794 0.9814347 1.034267 0.97412485 1.0011398 1.0512278 1.0775678 1.0071903
1.0268093 0.99487 0.98471135 1.00277 1.0124699 0.9844435 0.98114955 0.99145555
0.9952645 1.0731537 0.97161394 1.0495639 1.0305729 1.0040196 1.0578253 0.9579857
0.9833585 1.0060811 0.98517746 1.0214906 0.98135006 1.0381578 1.00777 0.98658395
0.9865253 1.0041624 1.0178833 1.0006975
00000000: b404 843f 8dca 853f 7bb9 753f d8cc 7c3f
00000010: 0b80 823f 0e02 793f 8c64 853f 8d5d 7c3f
00000020: a46e 893f abb2 733f 40e8 7c3f 9bb3 853f
00000030: de8a 7b3f 3a7f 843f c92a 793f c842 7e3f
00000040: aac5 713f 69e5 753f 2add 863f a95a 7a3f
00000050: 6586 863f c1e8 823f b907 803f 8b14 7c3f
00000060: ae7d 7b3f 027a 863f 3955 7e3f 5919 823f
00000070: d388 7f3f 2dc3 7b3f 0b53 783f 2117 823f
00000080: 3d36 793f ce3e 7d3f 36a5 7a3f 1d44 813f
00000090: e5a3 793f 964e 7f3f 4344 7c3f 15d9 7d3f
000000a0: efd3 803f 891d 7c3f d313 7a3f c4b0 833f
000000b0: 1d91 853f a38f 7e3f 6a21 7a3f cde3 853f
000000c0: b26e 833f 547e 7b3f c237 783f 9a4b 7b3f
000000d0: 1b51 803f 99d6 8a3f aca7 823f 6940 8a3f
000000e0: bf81 803f 283b 6f3f 9837 813f 5bda 8c3f
000000f0: bd67 783f 2202 753f 335a 7b3f 8c0f 8b3f
00000100: 0528 7b3f 4e3f 7b3f dc62 843f 3f60 793f
00000110: 5925 803f a28e 863f beed 893f 9deb 803f
00000120: 7d6e 833f cdaf 7e3f 0b16 7c3f c45a 803f
00000130: 9d98 813f 7d04 7c3f 9e2c 7b3f 08d0 7d3f
00000140: a7c9 7e3f 1a5d 893f b1bb 783f 1c58 863f
00000150: d0e9 833f b783 803f d266 873f 8d3e 753f
00000160: 62bd 7b3f 44c7 803f 9734 7c3f 34c0 823f
00000170: c239 7b3f 5be2 843f 9bfe 803f c490 7c3f
00000180: ec8c 7c3f 6588 803f 004a 823f db16 803f

bias f4 [100]
-0.086105056 -0.09398756 -0.008142368 -0.065678954 -0.098497406 -0.05802171 -0.09406498 0.07859454
-0.0938751 0.054736383 -0.06854665 -0.09358199 0.04319924 -0.089713916 -0.07000033 -0.074800685
0.03764958 -0.04882812 -0.091950305 -0.03646217 -0.09433676 -0.09111365 0.08546957 0.08334323
-0.047985658 -0.093004085 -0.075029045 0.08847248 0.089161366 0.07414074 0.029337596 0.10848668
-0.057210766 -0.08113833 0.079568155 0.09162771 0.06745031 0.08357145 -0.076726265 -0.07991975
0.0991543 0.07971952 0.07210516 0.08975989 -0.09493774 0.08597793 0.07615392 -0.08977748
-0.091301546 -0.07477823 0.07099854 -0.097328514 -0.08205186 -0.09486041 0.088098854 -0.10924803
0.10567523 -0.029522186 0.099121474 -0.10409607 -0.03426453 0.04364068 0.07679928 -0.11214743
-0.08846153 0.07888698 -0.08919178 0.08306623 0.085764796 -0.09920978 -0.1055315 -0.080023386
0.0915677 -0.06329127 0.1065997 -0.066872306 0.09003033 -0.050169874 0.075640395 -0.074599475
0.08519049 -0.11607943 0.051554967 -0.08707182 -0.08837711 0.09365935 -0.099983074 -0.03176632
0.06478332 -0.07937571 0.101799265 -0.08481088 0.07174897 -0.11448208 0.08234874 0.027806707
-0.07880331 0.08461828 -0.082226425 0.08350318
00000000: d957 b0bd 8d7c c0bd 9167 05bc b082 86bd
00000010: 02b9 c9bd 2ca8 6dbd 24a5 c0bd 2df6 a03d
00000020: 9741 c0bd 4233 603d 3062 8cbd eaa7 bfbd
00000030: b0f1 303d eebb b7bd 555c 8fbd 1a31 99bd
00000040: 7236 1a3d ffff 47bd 7150 bcbd 5b59 15bd
00000050: a233 c1bd cb99 babd ab0a af3d dbaf aa3d
00000060: 9c8c 44bd ed78 bebd d4a8 99bd 0f31 b53d
00000070: 3c9a b63d 1ad7 973d 6655 f03c 442e de3d
00000080: d655 6abd da2b a6bd a1f4 a23d 4fa7 bb3d
00000090: 6323 8a3d 8227 ab3d a922 9dbd f7ac a3bd
000000a0: 6911 cb3d fd43 a33d dfab 933d 09d4 b73d
000000b0: b86e c2bd 3215 b03d 96f6 9b3d 41dd b7bd
000000c0: 4efc babd 5425 99bd af67 913d 2c54 c7bd
000000d0: ce0a a8bd 2d46 c2bd 2c6d b43d 6ebd dfbd
000000e0: 416c d83d 83d8 f1bc 3300 cb3d 5230 d5bd
000000f0: f758 0cbd 92c0 323d f148 9d3d 8dad e5bd
00000100: 522b b5bd 7f8f a13d 2eaa b6bd a11e aa3d
00000110: 74a5 af3d 7f2e cbbd e620 d8bd 4de3 a3bd
00000120: d987 bb3d da9e 81bd f250 da3d 59f4 88bd
00000130: d261 b83d ed7e 4dbd 5ae9 9a3d 9cc7 98bd
00000140: 5a78 ae3d 0dbb edbd 4d2b 533d b652 b2bd
00000150: 0fff b4bd 79d0 bf3d edc3 ccbd 671d 02bd
00000160: 1ead 843d bb8f a2bd 227c d03d 54b1 adbd
00000170: 20f1 923d 9575 eabd 75a6 a83d e4ca e33c
00000180: a163 a1bd 594c ad3d 5466 a8bd b703 ab3d
